{
  "nodes": [
    {
      "op": "null", 
      "name": "data", 
      "inputs": []
    }, 
    {
      "op": "null", 
      "name": "bn_data_gamma", 
      "attrs": {
        "eps": "2e-05", 
        "fix_gamma": "True", 
        "momentum": "0.9"
      }, 
      "inputs": []
    }, 
    {
      "op": "null", 
      "name": "bn_data_beta", 
      "attrs": {
        "eps": "2e-05", 
        "fix_gamma": "True", 
        "momentum": "0.9"
      }, 
      "inputs": []
    }, 
    {
      "op": "null", 
      "name": "bn_data_moving_mean", 
      "attrs": {
        "__init__": "[\"zero\", {}]", 
        "eps": "2e-05", 
        "fix_gamma": "True", 
        "momentum": "0.9"
      }, 
      "inputs": []
    }, 
    {
      "op": "null", 
      "name": "bn_data_moving_var", 
      "attrs": {
        "__init__": "[\"one\", {}]", 
        "eps": "2e-05", 
        "fix_gamma": "True", 
        "momentum": "0.9"
      }, 
      "inputs": []
    }, 
    {
      "op": "BatchNorm", 
      "name": "bn_data", 
      "attrs": {
        "eps": "2e-05", 
        "fix_gamma": "True", 
        "momentum": "0.9"
      }, 
      "inputs": [[0, 0, 0], [1, 0, 0], [2, 0, 0], [3, 0, 1], [4, 0, 1]]
    }, 
    {
      "op": "ones_like", 
      "name": "ones_like0", 
      "inputs": [[5, 0, 0]]
    }, 
    {
      "op": "max", 
      "name": "max0", 
      "attrs": {"axis": "1"}, 
      "inputs": [[6, 0, 0]]
    }, 
    {
      "op": "argsort", 
      "name": "argsort0", 
      "attrs": {"axis": "2"}, 
      "inputs": [[7, 0, 0]]
    }, 
    {
      "op": "elemwise_add", 
      "name": "elemwise_add0", 
      "inputs": [[8, 0, 0], [7, 0, 0]]
    }, 
    {
      "op": "max", 
      "name": "max1", 
      "inputs": [[9, 0, 0]]
    }, 
    {
      "op": "broadcast_div", 
      "name": "broadcast_div0", 
      "inputs": [[9, 0, 0], [10, 0, 0]]
    }, 
    {
      "op": "argsort", 
      "name": "argsort1", 
      "attrs": {"axis": "1"}, 
      "inputs": [[7, 0, 0]]
    }, 
    {
      "op": "elemwise_add", 
      "name": "elemwise_add1", 
      "inputs": [[12, 0, 0], [7, 0, 0]]
    }, 
    {
      "op": "max", 
      "name": "max2", 
      "inputs": [[13, 0, 0]]
    }, 
    {
      "op": "broadcast_div", 
      "name": "broadcast_div1", 
      "inputs": [[13, 0, 0], [14, 0, 0]]
    }, 
    {
      "op": "stack", 
      "name": "stack0", 
      "attrs": {
        "axis": "1", 
        "num_args": "2"
      }, 
      "inputs": [[11, 0, 0], [15, 0, 0]]
    }, 
    {
      "op": "Concat", 
      "name": "concat0", 
      "attrs": {
        "dim": "1", 
        "num_args": "2"
      }, 
      "inputs": [[5, 0, 0], [16, 0, 0]]
    }, 
    {
      "op": "null", 
      "name": "conv0_weight", 
      "attrs": {
        "kernel": "(7, 7)", 
        "no_bias": "True", 
        "num_filter": "32", 
        "pad": "(3, 3)", 
        "stride": "(2, 2)", 
        "workspace": "512"
      }, 
      "inputs": []
    }, 
    {
      "op": "Convolution", 
      "name": "conv0", 
      "attrs": {
        "kernel": "(7, 7)", 
        "no_bias": "True", 
        "num_filter": "32", 
        "pad": "(3, 3)", 
        "stride": "(2, 2)", 
        "workspace": "512"
      }, 
      "inputs": [[17, 0, 0], [18, 0, 0]]
    }, 
    {
      "op": "null", 
      "name": "bn0_gamma", 
      "attrs": {
        "eps": "2e-05", 
        "fix_gamma": "False", 
        "momentum": "0.9"
      }, 
      "inputs": []
    }, 
    {
      "op": "null", 
      "name": "bn0_beta", 
      "attrs": {
        "eps": "2e-05", 
        "fix_gamma": "False", 
        "momentum": "0.9"
      }, 
      "inputs": []
    }, 
    {
      "op": "null", 
      "name": "bn0_moving_mean", 
      "attrs": {
        "__init__": "[\"zero\", {}]", 
        "eps": "2e-05", 
        "fix_gamma": "False", 
        "momentum": "0.9"
      }, 
      "inputs": []
    }, 
    {
      "op": "null", 
      "name": "bn0_moving_var", 
      "attrs": {
        "__init__": "[\"one\", {}]", 
        "eps": "2e-05", 
        "fix_gamma": "False", 
        "momentum": "0.9"
      }, 
      "inputs": []
    }, 
    {
      "op": "BatchNorm", 
      "name": "bn0", 
      "attrs": {
        "eps": "2e-05", 
        "fix_gamma": "False", 
        "momentum": "0.9"
      }, 
      "inputs": [[19, 0, 0], [20, 0, 0], [21, 0, 0], [22, 0, 1], [23, 0, 1]]
    }, 
    {
      "op": "Activation", 
      "name": "relu0", 
      "attrs": {"act_type": "relu"}, 
      "inputs": [[24, 0, 0]]
    }, 
    {
      "op": "Pooling", 
      "name": "pooling0", 
      "attrs": {
        "kernel": "(3, 3)", 
        "pad": "(1, 1)", 
        "pool_type": "max", 
        "stride": "(2, 2)"
      }, 
      "inputs": [[25, 0, 0]]
    }, 
    {
      "op": "null", 
      "name": "DBstage1_unit1_bn1_gamma", 
      "attrs": {
        "eps": "2e-05", 
        "fix_gamma": "False", 
        "momentum": "0.9"
      }, 
      "inputs": []
    }, 
    {
      "op": "null", 
      "name": "DBstage1_unit1_bn1_beta", 
      "attrs": {
        "eps": "2e-05", 
        "fix_gamma": "False", 
        "momentum": "0.9"
      }, 
      "inputs": []
    }, 
    {
      "op": "null", 
      "name": "DBstage1_unit1_bn1_moving_mean", 
      "attrs": {
        "__init__": "[\"zero\", {}]", 
        "eps": "2e-05", 
        "fix_gamma": "False", 
        "momentum": "0.9"
      }, 
      "inputs": []
    }, 
    {
      "op": "null", 
      "name": "DBstage1_unit1_bn1_moving_var", 
      "attrs": {
        "__init__": "[\"one\", {}]", 
        "eps": "2e-05", 
        "fix_gamma": "False", 
        "momentum": "0.9"
      }, 
      "inputs": []
    }, 
    {
      "op": "BatchNorm", 
      "name": "DBstage1_unit1_bn1", 
      "attrs": {
        "eps": "2e-05", 
        "fix_gamma": "False", 
        "momentum": "0.9"
      }, 
      "inputs": [[26, 0, 0], [27, 0, 0], [28, 0, 0], [29, 0, 1], [30, 0, 1]]
    }, 
    {
      "op": "Activation", 
      "name": "DBstage1_unit1_relu1", 
      "attrs": {"act_type": "relu"}, 
      "inputs": [[31, 0, 0]]
    }, 
    {
      "op": "ones_like", 
      "name": "ones_like1", 
      "inputs": [[32, 0, 0]]
    }, 
    {
      "op": "max", 
      "name": "max3", 
      "attrs": {"axis": "1"}, 
      "inputs": [[33, 0, 0]]
    }, 
    {
      "op": "argsort", 
      "name": "argsort2", 
      "attrs": {"axis": "2"}, 
      "inputs": [[34, 0, 0]]
    }, 
    {
      "op": "elemwise_add", 
      "name": "elemwise_add2", 
      "inputs": [[35, 0, 0], [34, 0, 0]]
    }, 
    {
      "op": "max", 
      "name": "max4", 
      "inputs": [[36, 0, 0]]
    }, 
    {
      "op": "broadcast_div", 
      "name": "broadcast_div2", 
      "inputs": [[36, 0, 0], [37, 0, 0]]
    }, 
    {
      "op": "argsort", 
      "name": "argsort3", 
      "attrs": {"axis": "1"}, 
      "inputs": [[34, 0, 0]]
    }, 
    {
      "op": "elemwise_add", 
      "name": "elemwise_add3", 
      "inputs": [[39, 0, 0], [34, 0, 0]]
    }, 
    {
      "op": "max", 
      "name": "max5", 
      "inputs": [[40, 0, 0]]
    }, 
    {
      "op": "broadcast_div", 
      "name": "broadcast_div3", 
      "inputs": [[40, 0, 0], [41, 0, 0]]
    }, 
    {
      "op": "stack", 
      "name": "stack1", 
      "attrs": {
        "axis": "1", 
        "num_args": "2"
      }, 
      "inputs": [[38, 0, 0], [42, 0, 0]]
    }, 
    {
      "op": "Concat", 
      "name": "concat1", 
      "attrs": {
        "dim": "1", 
        "num_args": "2"
      }, 
      "inputs": [[32, 0, 0], [43, 0, 0]]
    }, 
    {
      "op": "null", 
      "name": "DBstage1_unit1_conv1_weight", 
      "attrs": {
        "kernel": "(1, 1)", 
        "no_bias": "True", 
        "num_filter": "64", 
        "pad": "(0, 0)", 
        "stride": "(1, 1)", 
        "workspace": "512"
      }, 
      "inputs": []
    }, 
    {
      "op": "Convolution", 
      "name": "DBstage1_unit1_conv1", 
      "attrs": {
        "kernel": "(1, 1)", 
        "no_bias": "True", 
        "num_filter": "64", 
        "pad": "(0, 0)", 
        "stride": "(1, 1)", 
        "workspace": "512"
      }, 
      "inputs": [[44, 0, 0], [45, 0, 0]]
    }, 
    {
      "op": "null", 
      "name": "DBstage1_unit1_bn2_gamma", 
      "attrs": {
        "eps": "2e-05", 
        "fix_gamma": "False", 
        "momentum": "0.9"
      }, 
      "inputs": []
    }, 
    {
      "op": "null", 
      "name": "DBstage1_unit1_bn2_beta", 
      "attrs": {
        "eps": "2e-05", 
        "fix_gamma": "False", 
        "momentum": "0.9"
      }, 
      "inputs": []
    }, 
    {
      "op": "null", 
      "name": "DBstage1_unit1_bn2_moving_mean", 
      "attrs": {
        "__init__": "[\"zero\", {}]", 
        "eps": "2e-05", 
        "fix_gamma": "False", 
        "momentum": "0.9"
      }, 
      "inputs": []
    }, 
    {
      "op": "null", 
      "name": "DBstage1_unit1_bn2_moving_var", 
      "attrs": {
        "__init__": "[\"one\", {}]", 
        "eps": "2e-05", 
        "fix_gamma": "False", 
        "momentum": "0.9"
      }, 
      "inputs": []
    }, 
    {
      "op": "BatchNorm", 
      "name": "DBstage1_unit1_bn2", 
      "attrs": {
        "eps": "2e-05", 
        "fix_gamma": "False", 
        "momentum": "0.9"
      }, 
      "inputs": [[46, 0, 0], [47, 0, 0], [48, 0, 0], [49, 0, 1], [50, 0, 1]]
    }, 
    {
      "op": "Activation", 
      "name": "DBstage1_unit1_relu2", 
      "attrs": {"act_type": "relu"}, 
      "inputs": [[51, 0, 0]]
    }, 
    {
      "op": "ones_like", 
      "name": "ones_like2", 
      "inputs": [[52, 0, 0]]
    }, 
    {
      "op": "max", 
      "name": "max6", 
      "attrs": {"axis": "1"}, 
      "inputs": [[53, 0, 0]]
    }, 
    {
      "op": "argsort", 
      "name": "argsort4", 
      "attrs": {"axis": "2"}, 
      "inputs": [[54, 0, 0]]
    }, 
    {
      "op": "elemwise_add", 
      "name": "elemwise_add4", 
      "inputs": [[55, 0, 0], [54, 0, 0]]
    }, 
    {
      "op": "max", 
      "name": "max7", 
      "inputs": [[56, 0, 0]]
    }, 
    {
      "op": "broadcast_div", 
      "name": "broadcast_div4", 
      "inputs": [[56, 0, 0], [57, 0, 0]]
    }, 
    {
      "op": "argsort", 
      "name": "argsort5", 
      "attrs": {"axis": "1"}, 
      "inputs": [[54, 0, 0]]
    }, 
    {
      "op": "elemwise_add", 
      "name": "elemwise_add5", 
      "inputs": [[59, 0, 0], [54, 0, 0]]
    }, 
    {
      "op": "max", 
      "name": "max8", 
      "inputs": [[60, 0, 0]]
    }, 
    {
      "op": "broadcast_div", 
      "name": "broadcast_div5", 
      "inputs": [[60, 0, 0], [61, 0, 0]]
    }, 
    {
      "op": "stack", 
      "name": "stack2", 
      "attrs": {
        "axis": "1", 
        "num_args": "2"
      }, 
      "inputs": [[58, 0, 0], [62, 0, 0]]
    }, 
    {
      "op": "Concat", 
      "name": "concat2", 
      "attrs": {
        "dim": "1", 
        "num_args": "2"
      }, 
      "inputs": [[52, 0, 0], [63, 0, 0]]
    }, 
    {
      "op": "null", 
      "name": "DBstage1_unit1_conv2_weight", 
      "attrs": {
        "kernel": "(3, 3)", 
        "no_bias": "True", 
        "num_filter": "16", 
        "pad": "(1, 1)", 
        "stride": "(1, 1)", 
        "workspace": "512"
      }, 
      "inputs": []
    }, 
    {
      "op": "Convolution", 
      "name": "DBstage1_unit1_conv2", 
      "attrs": {
        "kernel": "(3, 3)", 
        "no_bias": "True", 
        "num_filter": "16", 
        "pad": "(1, 1)", 
        "stride": "(1, 1)", 
        "workspace": "512"
      }, 
      "inputs": [[64, 0, 0], [65, 0, 0]]
    }, 
    {
      "op": "Concat", 
      "name": "DBstage1_concat1", 
      "attrs": {"num_args": "2"}, 
      "inputs": [[26, 0, 0], [66, 0, 0]]
    }, 
    {
      "op": "null", 
      "name": "DBstage1_unit2_bn1_gamma", 
      "attrs": {
        "eps": "2e-05", 
        "fix_gamma": "False", 
        "momentum": "0.9"
      }, 
      "inputs": []
    }, 
    {
      "op": "null", 
      "name": "DBstage1_unit2_bn1_beta", 
      "attrs": {
        "eps": "2e-05", 
        "fix_gamma": "False", 
        "momentum": "0.9"
      }, 
      "inputs": []
    }, 
    {
      "op": "null", 
      "name": "DBstage1_unit2_bn1_moving_mean", 
      "attrs": {
        "__init__": "[\"zero\", {}]", 
        "eps": "2e-05", 
        "fix_gamma": "False", 
        "momentum": "0.9"
      }, 
      "inputs": []
    }, 
    {
      "op": "null", 
      "name": "DBstage1_unit2_bn1_moving_var", 
      "attrs": {
        "__init__": "[\"one\", {}]", 
        "eps": "2e-05", 
        "fix_gamma": "False", 
        "momentum": "0.9"
      }, 
      "inputs": []
    }, 
    {
      "op": "BatchNorm", 
      "name": "DBstage1_unit2_bn1", 
      "attrs": {
        "eps": "2e-05", 
        "fix_gamma": "False", 
        "momentum": "0.9"
      }, 
      "inputs": [[67, 0, 0], [68, 0, 0], [69, 0, 0], [70, 0, 1], [71, 0, 1]]
    }, 
    {
      "op": "Activation", 
      "name": "DBstage1_unit2_relu1", 
      "attrs": {"act_type": "relu"}, 
      "inputs": [[72, 0, 0]]
    }, 
    {
      "op": "ones_like", 
      "name": "ones_like3", 
      "inputs": [[73, 0, 0]]
    }, 
    {
      "op": "max", 
      "name": "max9", 
      "attrs": {"axis": "1"}, 
      "inputs": [[74, 0, 0]]
    }, 
    {
      "op": "argsort", 
      "name": "argsort6", 
      "attrs": {"axis": "2"}, 
      "inputs": [[75, 0, 0]]
    }, 
    {
      "op": "elemwise_add", 
      "name": "elemwise_add6", 
      "inputs": [[76, 0, 0], [75, 0, 0]]
    }, 
    {
      "op": "max", 
      "name": "max10", 
      "inputs": [[77, 0, 0]]
    }, 
    {
      "op": "broadcast_div", 
      "name": "broadcast_div6", 
      "inputs": [[77, 0, 0], [78, 0, 0]]
    }, 
    {
      "op": "argsort", 
      "name": "argsort7", 
      "attrs": {"axis": "1"}, 
      "inputs": [[75, 0, 0]]
    }, 
    {
      "op": "elemwise_add", 
      "name": "elemwise_add7", 
      "inputs": [[80, 0, 0], [75, 0, 0]]
    }, 
    {
      "op": "max", 
      "name": "max11", 
      "inputs": [[81, 0, 0]]
    }, 
    {
      "op": "broadcast_div", 
      "name": "broadcast_div7", 
      "inputs": [[81, 0, 0], [82, 0, 0]]
    }, 
    {
      "op": "stack", 
      "name": "stack3", 
      "attrs": {
        "axis": "1", 
        "num_args": "2"
      }, 
      "inputs": [[79, 0, 0], [83, 0, 0]]
    }, 
    {
      "op": "Concat", 
      "name": "concat3", 
      "attrs": {
        "dim": "1", 
        "num_args": "2"
      }, 
      "inputs": [[73, 0, 0], [84, 0, 0]]
    }, 
    {
      "op": "null", 
      "name": "DBstage1_unit2_conv1_weight", 
      "attrs": {
        "kernel": "(1, 1)", 
        "no_bias": "True", 
        "num_filter": "64", 
        "pad": "(0, 0)", 
        "stride": "(1, 1)", 
        "workspace": "512"
      }, 
      "inputs": []
    }, 
    {
      "op": "Convolution", 
      "name": "DBstage1_unit2_conv1", 
      "attrs": {
        "kernel": "(1, 1)", 
        "no_bias": "True", 
        "num_filter": "64", 
        "pad": "(0, 0)", 
        "stride": "(1, 1)", 
        "workspace": "512"
      }, 
      "inputs": [[85, 0, 0], [86, 0, 0]]
    }, 
    {
      "op": "null", 
      "name": "DBstage1_unit2_bn2_gamma", 
      "attrs": {
        "eps": "2e-05", 
        "fix_gamma": "False", 
        "momentum": "0.9"
      }, 
      "inputs": []
    }, 
    {
      "op": "null", 
      "name": "DBstage1_unit2_bn2_beta", 
      "attrs": {
        "eps": "2e-05", 
        "fix_gamma": "False", 
        "momentum": "0.9"
      }, 
      "inputs": []
    }, 
    {
      "op": "null", 
      "name": "DBstage1_unit2_bn2_moving_mean", 
      "attrs": {
        "__init__": "[\"zero\", {}]", 
        "eps": "2e-05", 
        "fix_gamma": "False", 
        "momentum": "0.9"
      }, 
      "inputs": []
    }, 
    {
      "op": "null", 
      "name": "DBstage1_unit2_bn2_moving_var", 
      "attrs": {
        "__init__": "[\"one\", {}]", 
        "eps": "2e-05", 
        "fix_gamma": "False", 
        "momentum": "0.9"
      }, 
      "inputs": []
    }, 
    {
      "op": "BatchNorm", 
      "name": "DBstage1_unit2_bn2", 
      "attrs": {
        "eps": "2e-05", 
        "fix_gamma": "False", 
        "momentum": "0.9"
      }, 
      "inputs": [[87, 0, 0], [88, 0, 0], [89, 0, 0], [90, 0, 1], [91, 0, 1]]
    }, 
    {
      "op": "Activation", 
      "name": "DBstage1_unit2_relu2", 
      "attrs": {"act_type": "relu"}, 
      "inputs": [[92, 0, 0]]
    }, 
    {
      "op": "ones_like", 
      "name": "ones_like4", 
      "inputs": [[93, 0, 0]]
    }, 
    {
      "op": "max", 
      "name": "max12", 
      "attrs": {"axis": "1"}, 
      "inputs": [[94, 0, 0]]
    }, 
    {
      "op": "argsort", 
      "name": "argsort8", 
      "attrs": {"axis": "2"}, 
      "inputs": [[95, 0, 0]]
    }, 
    {
      "op": "elemwise_add", 
      "name": "elemwise_add8", 
      "inputs": [[96, 0, 0], [95, 0, 0]]
    }, 
    {
      "op": "max", 
      "name": "max13", 
      "inputs": [[97, 0, 0]]
    }, 
    {
      "op": "broadcast_div", 
      "name": "broadcast_div8", 
      "inputs": [[97, 0, 0], [98, 0, 0]]
    }, 
    {
      "op": "argsort", 
      "name": "argsort9", 
      "attrs": {"axis": "1"}, 
      "inputs": [[95, 0, 0]]
    }, 
    {
      "op": "elemwise_add", 
      "name": "elemwise_add9", 
      "inputs": [[100, 0, 0], [95, 0, 0]]
    }, 
    {
      "op": "max", 
      "name": "max14", 
      "inputs": [[101, 0, 0]]
    }, 
    {
      "op": "broadcast_div", 
      "name": "broadcast_div9", 
      "inputs": [[101, 0, 0], [102, 0, 0]]
    }, 
    {
      "op": "stack", 
      "name": "stack4", 
      "attrs": {
        "axis": "1", 
        "num_args": "2"
      }, 
      "inputs": [[99, 0, 0], [103, 0, 0]]
    }, 
    {
      "op": "Concat", 
      "name": "concat4", 
      "attrs": {
        "dim": "1", 
        "num_args": "2"
      }, 
      "inputs": [[93, 0, 0], [104, 0, 0]]
    }, 
    {
      "op": "null", 
      "name": "DBstage1_unit2_conv2_weight", 
      "attrs": {
        "kernel": "(3, 3)", 
        "no_bias": "True", 
        "num_filter": "16", 
        "pad": "(1, 1)", 
        "stride": "(1, 1)", 
        "workspace": "512"
      }, 
      "inputs": []
    }, 
    {
      "op": "Convolution", 
      "name": "DBstage1_unit2_conv2", 
      "attrs": {
        "kernel": "(3, 3)", 
        "no_bias": "True", 
        "num_filter": "16", 
        "pad": "(1, 1)", 
        "stride": "(1, 1)", 
        "workspace": "512"
      }, 
      "inputs": [[105, 0, 0], [106, 0, 0]]
    }, 
    {
      "op": "Concat", 
      "name": "DBstage1_concat2", 
      "attrs": {"num_args": "2"}, 
      "inputs": [[67, 0, 0], [107, 0, 0]]
    }, 
    {
      "op": "null", 
      "name": "DBstage1_unit3_bn1_gamma", 
      "attrs": {
        "eps": "2e-05", 
        "fix_gamma": "False", 
        "momentum": "0.9"
      }, 
      "inputs": []
    }, 
    {
      "op": "null", 
      "name": "DBstage1_unit3_bn1_beta", 
      "attrs": {
        "eps": "2e-05", 
        "fix_gamma": "False", 
        "momentum": "0.9"
      }, 
      "inputs": []
    }, 
    {
      "op": "null", 
      "name": "DBstage1_unit3_bn1_moving_mean", 
      "attrs": {
        "__init__": "[\"zero\", {}]", 
        "eps": "2e-05", 
        "fix_gamma": "False", 
        "momentum": "0.9"
      }, 
      "inputs": []
    }, 
    {
      "op": "null", 
      "name": "DBstage1_unit3_bn1_moving_var", 
      "attrs": {
        "__init__": "[\"one\", {}]", 
        "eps": "2e-05", 
        "fix_gamma": "False", 
        "momentum": "0.9"
      }, 
      "inputs": []
    }, 
    {
      "op": "BatchNorm", 
      "name": "DBstage1_unit3_bn1", 
      "attrs": {
        "eps": "2e-05", 
        "fix_gamma": "False", 
        "momentum": "0.9"
      }, 
      "inputs": [[108, 0, 0], [109, 0, 0], [110, 0, 0], [111, 0, 1], [112, 0, 1]]
    }, 
    {
      "op": "Activation", 
      "name": "DBstage1_unit3_relu1", 
      "attrs": {"act_type": "relu"}, 
      "inputs": [[113, 0, 0]]
    }, 
    {
      "op": "ones_like", 
      "name": "ones_like5", 
      "inputs": [[114, 0, 0]]
    }, 
    {
      "op": "max", 
      "name": "max15", 
      "attrs": {"axis": "1"}, 
      "inputs": [[115, 0, 0]]
    }, 
    {
      "op": "argsort", 
      "name": "argsort10", 
      "attrs": {"axis": "2"}, 
      "inputs": [[116, 0, 0]]
    }, 
    {
      "op": "elemwise_add", 
      "name": "elemwise_add10", 
      "inputs": [[117, 0, 0], [116, 0, 0]]
    }, 
    {
      "op": "max", 
      "name": "max16", 
      "inputs": [[118, 0, 0]]
    }, 
    {
      "op": "broadcast_div", 
      "name": "broadcast_div10", 
      "inputs": [[118, 0, 0], [119, 0, 0]]
    }, 
    {
      "op": "argsort", 
      "name": "argsort11", 
      "attrs": {"axis": "1"}, 
      "inputs": [[116, 0, 0]]
    }, 
    {
      "op": "elemwise_add", 
      "name": "elemwise_add11", 
      "inputs": [[121, 0, 0], [116, 0, 0]]
    }, 
    {
      "op": "max", 
      "name": "max17", 
      "inputs": [[122, 0, 0]]
    }, 
    {
      "op": "broadcast_div", 
      "name": "broadcast_div11", 
      "inputs": [[122, 0, 0], [123, 0, 0]]
    }, 
    {
      "op": "stack", 
      "name": "stack5", 
      "attrs": {
        "axis": "1", 
        "num_args": "2"
      }, 
      "inputs": [[120, 0, 0], [124, 0, 0]]
    }, 
    {
      "op": "Concat", 
      "name": "concat5", 
      "attrs": {
        "dim": "1", 
        "num_args": "2"
      }, 
      "inputs": [[114, 0, 0], [125, 0, 0]]
    }, 
    {
      "op": "null", 
      "name": "DBstage1_unit3_conv1_weight", 
      "attrs": {
        "kernel": "(1, 1)", 
        "no_bias": "True", 
        "num_filter": "64", 
        "pad": "(0, 0)", 
        "stride": "(1, 1)", 
        "workspace": "512"
      }, 
      "inputs": []
    }, 
    {
      "op": "Convolution", 
      "name": "DBstage1_unit3_conv1", 
      "attrs": {
        "kernel": "(1, 1)", 
        "no_bias": "True", 
        "num_filter": "64", 
        "pad": "(0, 0)", 
        "stride": "(1, 1)", 
        "workspace": "512"
      }, 
      "inputs": [[126, 0, 0], [127, 0, 0]]
    }, 
    {
      "op": "null", 
      "name": "DBstage1_unit3_bn2_gamma", 
      "attrs": {
        "eps": "2e-05", 
        "fix_gamma": "False", 
        "momentum": "0.9"
      }, 
      "inputs": []
    }, 
    {
      "op": "null", 
      "name": "DBstage1_unit3_bn2_beta", 
      "attrs": {
        "eps": "2e-05", 
        "fix_gamma": "False", 
        "momentum": "0.9"
      }, 
      "inputs": []
    }, 
    {
      "op": "null", 
      "name": "DBstage1_unit3_bn2_moving_mean", 
      "attrs": {
        "__init__": "[\"zero\", {}]", 
        "eps": "2e-05", 
        "fix_gamma": "False", 
        "momentum": "0.9"
      }, 
      "inputs": []
    }, 
    {
      "op": "null", 
      "name": "DBstage1_unit3_bn2_moving_var", 
      "attrs": {
        "__init__": "[\"one\", {}]", 
        "eps": "2e-05", 
        "fix_gamma": "False", 
        "momentum": "0.9"
      }, 
      "inputs": []
    }, 
    {
      "op": "BatchNorm", 
      "name": "DBstage1_unit3_bn2", 
      "attrs": {
        "eps": "2e-05", 
        "fix_gamma": "False", 
        "momentum": "0.9"
      }, 
      "inputs": [[128, 0, 0], [129, 0, 0], [130, 0, 0], [131, 0, 1], [132, 0, 1]]
    }, 
    {
      "op": "Activation", 
      "name": "DBstage1_unit3_relu2", 
      "attrs": {"act_type": "relu"}, 
      "inputs": [[133, 0, 0]]
    }, 
    {
      "op": "ones_like", 
      "name": "ones_like6", 
      "inputs": [[134, 0, 0]]
    }, 
    {
      "op": "max", 
      "name": "max18", 
      "attrs": {"axis": "1"}, 
      "inputs": [[135, 0, 0]]
    }, 
    {
      "op": "argsort", 
      "name": "argsort12", 
      "attrs": {"axis": "2"}, 
      "inputs": [[136, 0, 0]]
    }, 
    {
      "op": "elemwise_add", 
      "name": "elemwise_add12", 
      "inputs": [[137, 0, 0], [136, 0, 0]]
    }, 
    {
      "op": "max", 
      "name": "max19", 
      "inputs": [[138, 0, 0]]
    }, 
    {
      "op": "broadcast_div", 
      "name": "broadcast_div12", 
      "inputs": [[138, 0, 0], [139, 0, 0]]
    }, 
    {
      "op": "argsort", 
      "name": "argsort13", 
      "attrs": {"axis": "1"}, 
      "inputs": [[136, 0, 0]]
    }, 
    {
      "op": "elemwise_add", 
      "name": "elemwise_add13", 
      "inputs": [[141, 0, 0], [136, 0, 0]]
    }, 
    {
      "op": "max", 
      "name": "max20", 
      "inputs": [[142, 0, 0]]
    }, 
    {
      "op": "broadcast_div", 
      "name": "broadcast_div13", 
      "inputs": [[142, 0, 0], [143, 0, 0]]
    }, 
    {
      "op": "stack", 
      "name": "stack6", 
      "attrs": {
        "axis": "1", 
        "num_args": "2"
      }, 
      "inputs": [[140, 0, 0], [144, 0, 0]]
    }, 
    {
      "op": "Concat", 
      "name": "concat6", 
      "attrs": {
        "dim": "1", 
        "num_args": "2"
      }, 
      "inputs": [[134, 0, 0], [145, 0, 0]]
    }, 
    {
      "op": "null", 
      "name": "DBstage1_unit3_conv2_weight", 
      "attrs": {
        "kernel": "(3, 3)", 
        "no_bias": "True", 
        "num_filter": "16", 
        "pad": "(1, 1)", 
        "stride": "(1, 1)", 
        "workspace": "512"
      }, 
      "inputs": []
    }, 
    {
      "op": "Convolution", 
      "name": "DBstage1_unit3_conv2", 
      "attrs": {
        "kernel": "(3, 3)", 
        "no_bias": "True", 
        "num_filter": "16", 
        "pad": "(1, 1)", 
        "stride": "(1, 1)", 
        "workspace": "512"
      }, 
      "inputs": [[146, 0, 0], [147, 0, 0]]
    }, 
    {
      "op": "Concat", 
      "name": "DBstage1_concat3", 
      "attrs": {"num_args": "2"}, 
      "inputs": [[108, 0, 0], [148, 0, 0]]
    }, 
    {
      "op": "null", 
      "name": "DBstage1_unit4_bn1_gamma", 
      "attrs": {
        "eps": "2e-05", 
        "fix_gamma": "False", 
        "momentum": "0.9"
      }, 
      "inputs": []
    }, 
    {
      "op": "null", 
      "name": "DBstage1_unit4_bn1_beta", 
      "attrs": {
        "eps": "2e-05", 
        "fix_gamma": "False", 
        "momentum": "0.9"
      }, 
      "inputs": []
    }, 
    {
      "op": "null", 
      "name": "DBstage1_unit4_bn1_moving_mean", 
      "attrs": {
        "__init__": "[\"zero\", {}]", 
        "eps": "2e-05", 
        "fix_gamma": "False", 
        "momentum": "0.9"
      }, 
      "inputs": []
    }, 
    {
      "op": "null", 
      "name": "DBstage1_unit4_bn1_moving_var", 
      "attrs": {
        "__init__": "[\"one\", {}]", 
        "eps": "2e-05", 
        "fix_gamma": "False", 
        "momentum": "0.9"
      }, 
      "inputs": []
    }, 
    {
      "op": "BatchNorm", 
      "name": "DBstage1_unit4_bn1", 
      "attrs": {
        "eps": "2e-05", 
        "fix_gamma": "False", 
        "momentum": "0.9"
      }, 
      "inputs": [[149, 0, 0], [150, 0, 0], [151, 0, 0], [152, 0, 1], [153, 0, 1]]
    }, 
    {
      "op": "Activation", 
      "name": "DBstage1_unit4_relu1", 
      "attrs": {"act_type": "relu"}, 
      "inputs": [[154, 0, 0]]
    }, 
    {
      "op": "ones_like", 
      "name": "ones_like7", 
      "inputs": [[155, 0, 0]]
    }, 
    {
      "op": "max", 
      "name": "max21", 
      "attrs": {"axis": "1"}, 
      "inputs": [[156, 0, 0]]
    }, 
    {
      "op": "argsort", 
      "name": "argsort14", 
      "attrs": {"axis": "2"}, 
      "inputs": [[157, 0, 0]]
    }, 
    {
      "op": "elemwise_add", 
      "name": "elemwise_add14", 
      "inputs": [[158, 0, 0], [157, 0, 0]]
    }, 
    {
      "op": "max", 
      "name": "max22", 
      "inputs": [[159, 0, 0]]
    }, 
    {
      "op": "broadcast_div", 
      "name": "broadcast_div14", 
      "inputs": [[159, 0, 0], [160, 0, 0]]
    }, 
    {
      "op": "argsort", 
      "name": "argsort15", 
      "attrs": {"axis": "1"}, 
      "inputs": [[157, 0, 0]]
    }, 
    {
      "op": "elemwise_add", 
      "name": "elemwise_add15", 
      "inputs": [[162, 0, 0], [157, 0, 0]]
    }, 
    {
      "op": "max", 
      "name": "max23", 
      "inputs": [[163, 0, 0]]
    }, 
    {
      "op": "broadcast_div", 
      "name": "broadcast_div15", 
      "inputs": [[163, 0, 0], [164, 0, 0]]
    }, 
    {
      "op": "stack", 
      "name": "stack7", 
      "attrs": {
        "axis": "1", 
        "num_args": "2"
      }, 
      "inputs": [[161, 0, 0], [165, 0, 0]]
    }, 
    {
      "op": "Concat", 
      "name": "concat7", 
      "attrs": {
        "dim": "1", 
        "num_args": "2"
      }, 
      "inputs": [[155, 0, 0], [166, 0, 0]]
    }, 
    {
      "op": "null", 
      "name": "DBstage1_unit4_conv1_weight", 
      "attrs": {
        "kernel": "(1, 1)", 
        "no_bias": "True", 
        "num_filter": "64", 
        "pad": "(0, 0)", 
        "stride": "(1, 1)", 
        "workspace": "512"
      }, 
      "inputs": []
    }, 
    {
      "op": "Convolution", 
      "name": "DBstage1_unit4_conv1", 
      "attrs": {
        "kernel": "(1, 1)", 
        "no_bias": "True", 
        "num_filter": "64", 
        "pad": "(0, 0)", 
        "stride": "(1, 1)", 
        "workspace": "512"
      }, 
      "inputs": [[167, 0, 0], [168, 0, 0]]
    }, 
    {
      "op": "null", 
      "name": "DBstage1_unit4_bn2_gamma", 
      "attrs": {
        "eps": "2e-05", 
        "fix_gamma": "False", 
        "momentum": "0.9"
      }, 
      "inputs": []
    }, 
    {
      "op": "null", 
      "name": "DBstage1_unit4_bn2_beta", 
      "attrs": {
        "eps": "2e-05", 
        "fix_gamma": "False", 
        "momentum": "0.9"
      }, 
      "inputs": []
    }, 
    {
      "op": "null", 
      "name": "DBstage1_unit4_bn2_moving_mean", 
      "attrs": {
        "__init__": "[\"zero\", {}]", 
        "eps": "2e-05", 
        "fix_gamma": "False", 
        "momentum": "0.9"
      }, 
      "inputs": []
    }, 
    {
      "op": "null", 
      "name": "DBstage1_unit4_bn2_moving_var", 
      "attrs": {
        "__init__": "[\"one\", {}]", 
        "eps": "2e-05", 
        "fix_gamma": "False", 
        "momentum": "0.9"
      }, 
      "inputs": []
    }, 
    {
      "op": "BatchNorm", 
      "name": "DBstage1_unit4_bn2", 
      "attrs": {
        "eps": "2e-05", 
        "fix_gamma": "False", 
        "momentum": "0.9"
      }, 
      "inputs": [[169, 0, 0], [170, 0, 0], [171, 0, 0], [172, 0, 1], [173, 0, 1]]
    }, 
    {
      "op": "Activation", 
      "name": "DBstage1_unit4_relu2", 
      "attrs": {"act_type": "relu"}, 
      "inputs": [[174, 0, 0]]
    }, 
    {
      "op": "ones_like", 
      "name": "ones_like8", 
      "inputs": [[175, 0, 0]]
    }, 
    {
      "op": "max", 
      "name": "max24", 
      "attrs": {"axis": "1"}, 
      "inputs": [[176, 0, 0]]
    }, 
    {
      "op": "argsort", 
      "name": "argsort16", 
      "attrs": {"axis": "2"}, 
      "inputs": [[177, 0, 0]]
    }, 
    {
      "op": "elemwise_add", 
      "name": "elemwise_add16", 
      "inputs": [[178, 0, 0], [177, 0, 0]]
    }, 
    {
      "op": "max", 
      "name": "max25", 
      "inputs": [[179, 0, 0]]
    }, 
    {
      "op": "broadcast_div", 
      "name": "broadcast_div16", 
      "inputs": [[179, 0, 0], [180, 0, 0]]
    }, 
    {
      "op": "argsort", 
      "name": "argsort17", 
      "attrs": {"axis": "1"}, 
      "inputs": [[177, 0, 0]]
    }, 
    {
      "op": "elemwise_add", 
      "name": "elemwise_add17", 
      "inputs": [[182, 0, 0], [177, 0, 0]]
    }, 
    {
      "op": "max", 
      "name": "max26", 
      "inputs": [[183, 0, 0]]
    }, 
    {
      "op": "broadcast_div", 
      "name": "broadcast_div17", 
      "inputs": [[183, 0, 0], [184, 0, 0]]
    }, 
    {
      "op": "stack", 
      "name": "stack8", 
      "attrs": {
        "axis": "1", 
        "num_args": "2"
      }, 
      "inputs": [[181, 0, 0], [185, 0, 0]]
    }, 
    {
      "op": "Concat", 
      "name": "concat8", 
      "attrs": {
        "dim": "1", 
        "num_args": "2"
      }, 
      "inputs": [[175, 0, 0], [186, 0, 0]]
    }, 
    {
      "op": "null", 
      "name": "DBstage1_unit4_conv2_weight", 
      "attrs": {
        "kernel": "(3, 3)", 
        "no_bias": "True", 
        "num_filter": "16", 
        "pad": "(1, 1)", 
        "stride": "(1, 1)", 
        "workspace": "512"
      }, 
      "inputs": []
    }, 
    {
      "op": "Convolution", 
      "name": "DBstage1_unit4_conv2", 
      "attrs": {
        "kernel": "(3, 3)", 
        "no_bias": "True", 
        "num_filter": "16", 
        "pad": "(1, 1)", 
        "stride": "(1, 1)", 
        "workspace": "512"
      }, 
      "inputs": [[187, 0, 0], [188, 0, 0]]
    }, 
    {
      "op": "Concat", 
      "name": "DBstage1_concat4", 
      "attrs": {"num_args": "2"}, 
      "inputs": [[149, 0, 0], [189, 0, 0]]
    }, 
    {
      "op": "null", 
      "name": "DBstage1_unit5_bn1_gamma", 
      "attrs": {
        "eps": "2e-05", 
        "fix_gamma": "False", 
        "momentum": "0.9"
      }, 
      "inputs": []
    }, 
    {
      "op": "null", 
      "name": "DBstage1_unit5_bn1_beta", 
      "attrs": {
        "eps": "2e-05", 
        "fix_gamma": "False", 
        "momentum": "0.9"
      }, 
      "inputs": []
    }, 
    {
      "op": "null", 
      "name": "DBstage1_unit5_bn1_moving_mean", 
      "attrs": {
        "__init__": "[\"zero\", {}]", 
        "eps": "2e-05", 
        "fix_gamma": "False", 
        "momentum": "0.9"
      }, 
      "inputs": []
    }, 
    {
      "op": "null", 
      "name": "DBstage1_unit5_bn1_moving_var", 
      "attrs": {
        "__init__": "[\"one\", {}]", 
        "eps": "2e-05", 
        "fix_gamma": "False", 
        "momentum": "0.9"
      }, 
      "inputs": []
    }, 
    {
      "op": "BatchNorm", 
      "name": "DBstage1_unit5_bn1", 
      "attrs": {
        "eps": "2e-05", 
        "fix_gamma": "False", 
        "momentum": "0.9"
      }, 
      "inputs": [[190, 0, 0], [191, 0, 0], [192, 0, 0], [193, 0, 1], [194, 0, 1]]
    }, 
    {
      "op": "Activation", 
      "name": "DBstage1_unit5_relu1", 
      "attrs": {"act_type": "relu"}, 
      "inputs": [[195, 0, 0]]
    }, 
    {
      "op": "ones_like", 
      "name": "ones_like9", 
      "inputs": [[196, 0, 0]]
    }, 
    {
      "op": "max", 
      "name": "max27", 
      "attrs": {"axis": "1"}, 
      "inputs": [[197, 0, 0]]
    }, 
    {
      "op": "argsort", 
      "name": "argsort18", 
      "attrs": {"axis": "2"}, 
      "inputs": [[198, 0, 0]]
    }, 
    {
      "op": "elemwise_add", 
      "name": "elemwise_add18", 
      "inputs": [[199, 0, 0], [198, 0, 0]]
    }, 
    {
      "op": "max", 
      "name": "max28", 
      "inputs": [[200, 0, 0]]
    }, 
    {
      "op": "broadcast_div", 
      "name": "broadcast_div18", 
      "inputs": [[200, 0, 0], [201, 0, 0]]
    }, 
    {
      "op": "argsort", 
      "name": "argsort19", 
      "attrs": {"axis": "1"}, 
      "inputs": [[198, 0, 0]]
    }, 
    {
      "op": "elemwise_add", 
      "name": "elemwise_add19", 
      "inputs": [[203, 0, 0], [198, 0, 0]]
    }, 
    {
      "op": "max", 
      "name": "max29", 
      "inputs": [[204, 0, 0]]
    }, 
    {
      "op": "broadcast_div", 
      "name": "broadcast_div19", 
      "inputs": [[204, 0, 0], [205, 0, 0]]
    }, 
    {
      "op": "stack", 
      "name": "stack9", 
      "attrs": {
        "axis": "1", 
        "num_args": "2"
      }, 
      "inputs": [[202, 0, 0], [206, 0, 0]]
    }, 
    {
      "op": "Concat", 
      "name": "concat9", 
      "attrs": {
        "dim": "1", 
        "num_args": "2"
      }, 
      "inputs": [[196, 0, 0], [207, 0, 0]]
    }, 
    {
      "op": "null", 
      "name": "DBstage1_unit5_conv1_weight", 
      "attrs": {
        "kernel": "(1, 1)", 
        "no_bias": "True", 
        "num_filter": "64", 
        "pad": "(0, 0)", 
        "stride": "(1, 1)", 
        "workspace": "512"
      }, 
      "inputs": []
    }, 
    {
      "op": "Convolution", 
      "name": "DBstage1_unit5_conv1", 
      "attrs": {
        "kernel": "(1, 1)", 
        "no_bias": "True", 
        "num_filter": "64", 
        "pad": "(0, 0)", 
        "stride": "(1, 1)", 
        "workspace": "512"
      }, 
      "inputs": [[208, 0, 0], [209, 0, 0]]
    }, 
    {
      "op": "null", 
      "name": "DBstage1_unit5_bn2_gamma", 
      "attrs": {
        "eps": "2e-05", 
        "fix_gamma": "False", 
        "momentum": "0.9"
      }, 
      "inputs": []
    }, 
    {
      "op": "null", 
      "name": "DBstage1_unit5_bn2_beta", 
      "attrs": {
        "eps": "2e-05", 
        "fix_gamma": "False", 
        "momentum": "0.9"
      }, 
      "inputs": []
    }, 
    {
      "op": "null", 
      "name": "DBstage1_unit5_bn2_moving_mean", 
      "attrs": {
        "__init__": "[\"zero\", {}]", 
        "eps": "2e-05", 
        "fix_gamma": "False", 
        "momentum": "0.9"
      }, 
      "inputs": []
    }, 
    {
      "op": "null", 
      "name": "DBstage1_unit5_bn2_moving_var", 
      "attrs": {
        "__init__": "[\"one\", {}]", 
        "eps": "2e-05", 
        "fix_gamma": "False", 
        "momentum": "0.9"
      }, 
      "inputs": []
    }, 
    {
      "op": "BatchNorm", 
      "name": "DBstage1_unit5_bn2", 
      "attrs": {
        "eps": "2e-05", 
        "fix_gamma": "False", 
        "momentum": "0.9"
      }, 
      "inputs": [[210, 0, 0], [211, 0, 0], [212, 0, 0], [213, 0, 1], [214, 0, 1]]
    }, 
    {
      "op": "Activation", 
      "name": "DBstage1_unit5_relu2", 
      "attrs": {"act_type": "relu"}, 
      "inputs": [[215, 0, 0]]
    }, 
    {
      "op": "ones_like", 
      "name": "ones_like10", 
      "inputs": [[216, 0, 0]]
    }, 
    {
      "op": "max", 
      "name": "max30", 
      "attrs": {"axis": "1"}, 
      "inputs": [[217, 0, 0]]
    }, 
    {
      "op": "argsort", 
      "name": "argsort20", 
      "attrs": {"axis": "2"}, 
      "inputs": [[218, 0, 0]]
    }, 
    {
      "op": "elemwise_add", 
      "name": "elemwise_add20", 
      "inputs": [[219, 0, 0], [218, 0, 0]]
    }, 
    {
      "op": "max", 
      "name": "max31", 
      "inputs": [[220, 0, 0]]
    }, 
    {
      "op": "broadcast_div", 
      "name": "broadcast_div20", 
      "inputs": [[220, 0, 0], [221, 0, 0]]
    }, 
    {
      "op": "argsort", 
      "name": "argsort21", 
      "attrs": {"axis": "1"}, 
      "inputs": [[218, 0, 0]]
    }, 
    {
      "op": "elemwise_add", 
      "name": "elemwise_add21", 
      "inputs": [[223, 0, 0], [218, 0, 0]]
    }, 
    {
      "op": "max", 
      "name": "max32", 
      "inputs": [[224, 0, 0]]
    }, 
    {
      "op": "broadcast_div", 
      "name": "broadcast_div21", 
      "inputs": [[224, 0, 0], [225, 0, 0]]
    }, 
    {
      "op": "stack", 
      "name": "stack10", 
      "attrs": {
        "axis": "1", 
        "num_args": "2"
      }, 
      "inputs": [[222, 0, 0], [226, 0, 0]]
    }, 
    {
      "op": "Concat", 
      "name": "concat10", 
      "attrs": {
        "dim": "1", 
        "num_args": "2"
      }, 
      "inputs": [[216, 0, 0], [227, 0, 0]]
    }, 
    {
      "op": "null", 
      "name": "DBstage1_unit5_conv2_weight", 
      "attrs": {
        "kernel": "(3, 3)", 
        "no_bias": "True", 
        "num_filter": "16", 
        "pad": "(1, 1)", 
        "stride": "(1, 1)", 
        "workspace": "512"
      }, 
      "inputs": []
    }, 
    {
      "op": "Convolution", 
      "name": "DBstage1_unit5_conv2", 
      "attrs": {
        "kernel": "(3, 3)", 
        "no_bias": "True", 
        "num_filter": "16", 
        "pad": "(1, 1)", 
        "stride": "(1, 1)", 
        "workspace": "512"
      }, 
      "inputs": [[228, 0, 0], [229, 0, 0]]
    }, 
    {
      "op": "Concat", 
      "name": "DBstage1_concat5", 
      "attrs": {"num_args": "2"}, 
      "inputs": [[190, 0, 0], [230, 0, 0]]
    }, 
    {
      "op": "null", 
      "name": "DBstage1_unit6_bn1_gamma", 
      "attrs": {
        "eps": "2e-05", 
        "fix_gamma": "False", 
        "momentum": "0.9"
      }, 
      "inputs": []
    }, 
    {
      "op": "null", 
      "name": "DBstage1_unit6_bn1_beta", 
      "attrs": {
        "eps": "2e-05", 
        "fix_gamma": "False", 
        "momentum": "0.9"
      }, 
      "inputs": []
    }, 
    {
      "op": "null", 
      "name": "DBstage1_unit6_bn1_moving_mean", 
      "attrs": {
        "__init__": "[\"zero\", {}]", 
        "eps": "2e-05", 
        "fix_gamma": "False", 
        "momentum": "0.9"
      }, 
      "inputs": []
    }, 
    {
      "op": "null", 
      "name": "DBstage1_unit6_bn1_moving_var", 
      "attrs": {
        "__init__": "[\"one\", {}]", 
        "eps": "2e-05", 
        "fix_gamma": "False", 
        "momentum": "0.9"
      }, 
      "inputs": []
    }, 
    {
      "op": "BatchNorm", 
      "name": "DBstage1_unit6_bn1", 
      "attrs": {
        "eps": "2e-05", 
        "fix_gamma": "False", 
        "momentum": "0.9"
      }, 
      "inputs": [[231, 0, 0], [232, 0, 0], [233, 0, 0], [234, 0, 1], [235, 0, 1]]
    }, 
    {
      "op": "Activation", 
      "name": "DBstage1_unit6_relu1", 
      "attrs": {"act_type": "relu"}, 
      "inputs": [[236, 0, 0]]
    }, 
    {
      "op": "ones_like", 
      "name": "ones_like11", 
      "inputs": [[237, 0, 0]]
    }, 
    {
      "op": "max", 
      "name": "max33", 
      "attrs": {"axis": "1"}, 
      "inputs": [[238, 0, 0]]
    }, 
    {
      "op": "argsort", 
      "name": "argsort22", 
      "attrs": {"axis": "2"}, 
      "inputs": [[239, 0, 0]]
    }, 
    {
      "op": "elemwise_add", 
      "name": "elemwise_add22", 
      "inputs": [[240, 0, 0], [239, 0, 0]]
    }, 
    {
      "op": "max", 
      "name": "max34", 
      "inputs": [[241, 0, 0]]
    }, 
    {
      "op": "broadcast_div", 
      "name": "broadcast_div22", 
      "inputs": [[241, 0, 0], [242, 0, 0]]
    }, 
    {
      "op": "argsort", 
      "name": "argsort23", 
      "attrs": {"axis": "1"}, 
      "inputs": [[239, 0, 0]]
    }, 
    {
      "op": "elemwise_add", 
      "name": "elemwise_add23", 
      "inputs": [[244, 0, 0], [239, 0, 0]]
    }, 
    {
      "op": "max", 
      "name": "max35", 
      "inputs": [[245, 0, 0]]
    }, 
    {
      "op": "broadcast_div", 
      "name": "broadcast_div23", 
      "inputs": [[245, 0, 0], [246, 0, 0]]
    }, 
    {
      "op": "stack", 
      "name": "stack11", 
      "attrs": {
        "axis": "1", 
        "num_args": "2"
      }, 
      "inputs": [[243, 0, 0], [247, 0, 0]]
    }, 
    {
      "op": "Concat", 
      "name": "concat11", 
      "attrs": {
        "dim": "1", 
        "num_args": "2"
      }, 
      "inputs": [[237, 0, 0], [248, 0, 0]]
    }, 
    {
      "op": "null", 
      "name": "DBstage1_unit6_conv1_weight", 
      "attrs": {
        "kernel": "(1, 1)", 
        "no_bias": "True", 
        "num_filter": "64", 
        "pad": "(0, 0)", 
        "stride": "(1, 1)", 
        "workspace": "512"
      }, 
      "inputs": []
    }, 
    {
      "op": "Convolution", 
      "name": "DBstage1_unit6_conv1", 
      "attrs": {
        "kernel": "(1, 1)", 
        "no_bias": "True", 
        "num_filter": "64", 
        "pad": "(0, 0)", 
        "stride": "(1, 1)", 
        "workspace": "512"
      }, 
      "inputs": [[249, 0, 0], [250, 0, 0]]
    }, 
    {
      "op": "null", 
      "name": "DBstage1_unit6_bn2_gamma", 
      "attrs": {
        "eps": "2e-05", 
        "fix_gamma": "False", 
        "momentum": "0.9"
      }, 
      "inputs": []
    }, 
    {
      "op": "null", 
      "name": "DBstage1_unit6_bn2_beta", 
      "attrs": {
        "eps": "2e-05", 
        "fix_gamma": "False", 
        "momentum": "0.9"
      }, 
      "inputs": []
    }, 
    {
      "op": "null", 
      "name": "DBstage1_unit6_bn2_moving_mean", 
      "attrs": {
        "__init__": "[\"zero\", {}]", 
        "eps": "2e-05", 
        "fix_gamma": "False", 
        "momentum": "0.9"
      }, 
      "inputs": []
    }, 
    {
      "op": "null", 
      "name": "DBstage1_unit6_bn2_moving_var", 
      "attrs": {
        "__init__": "[\"one\", {}]", 
        "eps": "2e-05", 
        "fix_gamma": "False", 
        "momentum": "0.9"
      }, 
      "inputs": []
    }, 
    {
      "op": "BatchNorm", 
      "name": "DBstage1_unit6_bn2", 
      "attrs": {
        "eps": "2e-05", 
        "fix_gamma": "False", 
        "momentum": "0.9"
      }, 
      "inputs": [[251, 0, 0], [252, 0, 0], [253, 0, 0], [254, 0, 1], [255, 0, 1]]
    }, 
    {
      "op": "Activation", 
      "name": "DBstage1_unit6_relu2", 
      "attrs": {"act_type": "relu"}, 
      "inputs": [[256, 0, 0]]
    }, 
    {
      "op": "ones_like", 
      "name": "ones_like12", 
      "inputs": [[257, 0, 0]]
    }, 
    {
      "op": "max", 
      "name": "max36", 
      "attrs": {"axis": "1"}, 
      "inputs": [[258, 0, 0]]
    }, 
    {
      "op": "argsort", 
      "name": "argsort24", 
      "attrs": {"axis": "2"}, 
      "inputs": [[259, 0, 0]]
    }, 
    {
      "op": "elemwise_add", 
      "name": "elemwise_add24", 
      "inputs": [[260, 0, 0], [259, 0, 0]]
    }, 
    {
      "op": "max", 
      "name": "max37", 
      "inputs": [[261, 0, 0]]
    }, 
    {
      "op": "broadcast_div", 
      "name": "broadcast_div24", 
      "inputs": [[261, 0, 0], [262, 0, 0]]
    }, 
    {
      "op": "argsort", 
      "name": "argsort25", 
      "attrs": {"axis": "1"}, 
      "inputs": [[259, 0, 0]]
    }, 
    {
      "op": "elemwise_add", 
      "name": "elemwise_add25", 
      "inputs": [[264, 0, 0], [259, 0, 0]]
    }, 
    {
      "op": "max", 
      "name": "max38", 
      "inputs": [[265, 0, 0]]
    }, 
    {
      "op": "broadcast_div", 
      "name": "broadcast_div25", 
      "inputs": [[265, 0, 0], [266, 0, 0]]
    }, 
    {
      "op": "stack", 
      "name": "stack12", 
      "attrs": {
        "axis": "1", 
        "num_args": "2"
      }, 
      "inputs": [[263, 0, 0], [267, 0, 0]]
    }, 
    {
      "op": "Concat", 
      "name": "concat12", 
      "attrs": {
        "dim": "1", 
        "num_args": "2"
      }, 
      "inputs": [[257, 0, 0], [268, 0, 0]]
    }, 
    {
      "op": "null", 
      "name": "DBstage1_unit6_conv2_weight", 
      "attrs": {
        "kernel": "(3, 3)", 
        "no_bias": "True", 
        "num_filter": "16", 
        "pad": "(1, 1)", 
        "stride": "(1, 1)", 
        "workspace": "512"
      }, 
      "inputs": []
    }, 
    {
      "op": "Convolution", 
      "name": "DBstage1_unit6_conv2", 
      "attrs": {
        "kernel": "(3, 3)", 
        "no_bias": "True", 
        "num_filter": "16", 
        "pad": "(1, 1)", 
        "stride": "(1, 1)", 
        "workspace": "512"
      }, 
      "inputs": [[269, 0, 0], [270, 0, 0]]
    }, 
    {
      "op": "Concat", 
      "name": "DBstage1_concat6", 
      "attrs": {"num_args": "2"}, 
      "inputs": [[231, 0, 0], [271, 0, 0]]
    }, 
    {
      "op": "null", 
      "name": "TBstage1_bn1_gamma", 
      "attrs": {
        "eps": "2e-05", 
        "fix_gamma": "False", 
        "momentum": "0.9"
      }, 
      "inputs": []
    }, 
    {
      "op": "null", 
      "name": "TBstage1_bn1_beta", 
      "attrs": {
        "eps": "2e-05", 
        "fix_gamma": "False", 
        "momentum": "0.9"
      }, 
      "inputs": []
    }, 
    {
      "op": "null", 
      "name": "TBstage1_bn1_moving_mean", 
      "attrs": {
        "__init__": "[\"zero\", {}]", 
        "eps": "2e-05", 
        "fix_gamma": "False", 
        "momentum": "0.9"
      }, 
      "inputs": []
    }, 
    {
      "op": "null", 
      "name": "TBstage1_bn1_moving_var", 
      "attrs": {
        "__init__": "[\"one\", {}]", 
        "eps": "2e-05", 
        "fix_gamma": "False", 
        "momentum": "0.9"
      }, 
      "inputs": []
    }, 
    {
      "op": "BatchNorm", 
      "name": "TBstage1_bn1", 
      "attrs": {
        "eps": "2e-05", 
        "fix_gamma": "False", 
        "momentum": "0.9"
      }, 
      "inputs": [[272, 0, 0], [273, 0, 0], [274, 0, 0], [275, 0, 1], [276, 0, 1]]
    }, 
    {
      "op": "Activation", 
      "name": "TBstage1_relu1", 
      "attrs": {"act_type": "relu"}, 
      "inputs": [[277, 0, 0]]
    }, 
    {
      "op": "ones_like", 
      "name": "ones_like13", 
      "inputs": [[278, 0, 0]]
    }, 
    {
      "op": "max", 
      "name": "max39", 
      "attrs": {"axis": "1"}, 
      "inputs": [[279, 0, 0]]
    }, 
    {
      "op": "argsort", 
      "name": "argsort26", 
      "attrs": {"axis": "2"}, 
      "inputs": [[280, 0, 0]]
    }, 
    {
      "op": "elemwise_add", 
      "name": "elemwise_add26", 
      "inputs": [[281, 0, 0], [280, 0, 0]]
    }, 
    {
      "op": "max", 
      "name": "max40", 
      "inputs": [[282, 0, 0]]
    }, 
    {
      "op": "broadcast_div", 
      "name": "broadcast_div26", 
      "inputs": [[282, 0, 0], [283, 0, 0]]
    }, 
    {
      "op": "argsort", 
      "name": "argsort27", 
      "attrs": {"axis": "1"}, 
      "inputs": [[280, 0, 0]]
    }, 
    {
      "op": "elemwise_add", 
      "name": "elemwise_add27", 
      "inputs": [[285, 0, 0], [280, 0, 0]]
    }, 
    {
      "op": "max", 
      "name": "max41", 
      "inputs": [[286, 0, 0]]
    }, 
    {
      "op": "broadcast_div", 
      "name": "broadcast_div27", 
      "inputs": [[286, 0, 0], [287, 0, 0]]
    }, 
    {
      "op": "stack", 
      "name": "stack13", 
      "attrs": {
        "axis": "1", 
        "num_args": "2"
      }, 
      "inputs": [[284, 0, 0], [288, 0, 0]]
    }, 
    {
      "op": "Concat", 
      "name": "concat13", 
      "attrs": {
        "dim": "1", 
        "num_args": "2"
      }, 
      "inputs": [[278, 0, 0], [289, 0, 0]]
    }, 
    {
      "op": "null", 
      "name": "TBstage1_conv1_weight", 
      "attrs": {
        "kernel": "(1, 1)", 
        "no_bias": "True", 
        "num_filter": "64", 
        "pad": "(0, 0)", 
        "stride": "(1, 1)", 
        "workspace": "512"
      }, 
      "inputs": []
    }, 
    {
      "op": "Convolution", 
      "name": "TBstage1_conv1", 
      "attrs": {
        "kernel": "(1, 1)", 
        "no_bias": "True", 
        "num_filter": "64", 
        "pad": "(0, 0)", 
        "stride": "(1, 1)", 
        "workspace": "512"
      }, 
      "inputs": [[290, 0, 0], [291, 0, 0]]
    }, 
    {
      "op": "Pooling", 
      "name": "TBstage1_pool1", 
      "attrs": {
        "global_pool": "False", 
        "kernel": "(2, 2)", 
        "pool_type": "avg", 
        "stride": "(2, 2)"
      }, 
      "inputs": [[292, 0, 0]]
    }, 
    {
      "op": "null", 
      "name": "DBstage2_unit1_bn1_gamma", 
      "attrs": {
        "eps": "2e-05", 
        "fix_gamma": "False", 
        "momentum": "0.9"
      }, 
      "inputs": []
    }, 
    {
      "op": "null", 
      "name": "DBstage2_unit1_bn1_beta", 
      "attrs": {
        "eps": "2e-05", 
        "fix_gamma": "False", 
        "momentum": "0.9"
      }, 
      "inputs": []
    }, 
    {
      "op": "null", 
      "name": "DBstage2_unit1_bn1_moving_mean", 
      "attrs": {
        "__init__": "[\"zero\", {}]", 
        "eps": "2e-05", 
        "fix_gamma": "False", 
        "momentum": "0.9"
      }, 
      "inputs": []
    }, 
    {
      "op": "null", 
      "name": "DBstage2_unit1_bn1_moving_var", 
      "attrs": {
        "__init__": "[\"one\", {}]", 
        "eps": "2e-05", 
        "fix_gamma": "False", 
        "momentum": "0.9"
      }, 
      "inputs": []
    }, 
    {
      "op": "BatchNorm", 
      "name": "DBstage2_unit1_bn1", 
      "attrs": {
        "eps": "2e-05", 
        "fix_gamma": "False", 
        "momentum": "0.9"
      }, 
      "inputs": [[293, 0, 0], [294, 0, 0], [295, 0, 0], [296, 0, 1], [297, 0, 1]]
    }, 
    {
      "op": "Activation", 
      "name": "DBstage2_unit1_relu1", 
      "attrs": {"act_type": "relu"}, 
      "inputs": [[298, 0, 0]]
    }, 
    {
      "op": "ones_like", 
      "name": "ones_like14", 
      "inputs": [[299, 0, 0]]
    }, 
    {
      "op": "max", 
      "name": "max42", 
      "attrs": {"axis": "1"}, 
      "inputs": [[300, 0, 0]]
    }, 
    {
      "op": "argsort", 
      "name": "argsort28", 
      "attrs": {"axis": "2"}, 
      "inputs": [[301, 0, 0]]
    }, 
    {
      "op": "elemwise_add", 
      "name": "elemwise_add28", 
      "inputs": [[302, 0, 0], [301, 0, 0]]
    }, 
    {
      "op": "max", 
      "name": "max43", 
      "inputs": [[303, 0, 0]]
    }, 
    {
      "op": "broadcast_div", 
      "name": "broadcast_div28", 
      "inputs": [[303, 0, 0], [304, 0, 0]]
    }, 
    {
      "op": "argsort", 
      "name": "argsort29", 
      "attrs": {"axis": "1"}, 
      "inputs": [[301, 0, 0]]
    }, 
    {
      "op": "elemwise_add", 
      "name": "elemwise_add29", 
      "inputs": [[306, 0, 0], [301, 0, 0]]
    }, 
    {
      "op": "max", 
      "name": "max44", 
      "inputs": [[307, 0, 0]]
    }, 
    {
      "op": "broadcast_div", 
      "name": "broadcast_div29", 
      "inputs": [[307, 0, 0], [308, 0, 0]]
    }, 
    {
      "op": "stack", 
      "name": "stack14", 
      "attrs": {
        "axis": "1", 
        "num_args": "2"
      }, 
      "inputs": [[305, 0, 0], [309, 0, 0]]
    }, 
    {
      "op": "Concat", 
      "name": "concat14", 
      "attrs": {
        "dim": "1", 
        "num_args": "2"
      }, 
      "inputs": [[299, 0, 0], [310, 0, 0]]
    }, 
    {
      "op": "null", 
      "name": "DBstage2_unit1_conv1_weight", 
      "attrs": {
        "kernel": "(1, 1)", 
        "no_bias": "True", 
        "num_filter": "64", 
        "pad": "(0, 0)", 
        "stride": "(1, 1)", 
        "workspace": "512"
      }, 
      "inputs": []
    }, 
    {
      "op": "Convolution", 
      "name": "DBstage2_unit1_conv1", 
      "attrs": {
        "kernel": "(1, 1)", 
        "no_bias": "True", 
        "num_filter": "64", 
        "pad": "(0, 0)", 
        "stride": "(1, 1)", 
        "workspace": "512"
      }, 
      "inputs": [[311, 0, 0], [312, 0, 0]]
    }, 
    {
      "op": "null", 
      "name": "DBstage2_unit1_bn2_gamma", 
      "attrs": {
        "eps": "2e-05", 
        "fix_gamma": "False", 
        "momentum": "0.9"
      }, 
      "inputs": []
    }, 
    {
      "op": "null", 
      "name": "DBstage2_unit1_bn2_beta", 
      "attrs": {
        "eps": "2e-05", 
        "fix_gamma": "False", 
        "momentum": "0.9"
      }, 
      "inputs": []
    }, 
    {
      "op": "null", 
      "name": "DBstage2_unit1_bn2_moving_mean", 
      "attrs": {
        "__init__": "[\"zero\", {}]", 
        "eps": "2e-05", 
        "fix_gamma": "False", 
        "momentum": "0.9"
      }, 
      "inputs": []
    }, 
    {
      "op": "null", 
      "name": "DBstage2_unit1_bn2_moving_var", 
      "attrs": {
        "__init__": "[\"one\", {}]", 
        "eps": "2e-05", 
        "fix_gamma": "False", 
        "momentum": "0.9"
      }, 
      "inputs": []
    }, 
    {
      "op": "BatchNorm", 
      "name": "DBstage2_unit1_bn2", 
      "attrs": {
        "eps": "2e-05", 
        "fix_gamma": "False", 
        "momentum": "0.9"
      }, 
      "inputs": [[313, 0, 0], [314, 0, 0], [315, 0, 0], [316, 0, 1], [317, 0, 1]]
    }, 
    {
      "op": "Activation", 
      "name": "DBstage2_unit1_relu2", 
      "attrs": {"act_type": "relu"}, 
      "inputs": [[318, 0, 0]]
    }, 
    {
      "op": "ones_like", 
      "name": "ones_like15", 
      "inputs": [[319, 0, 0]]
    }, 
    {
      "op": "max", 
      "name": "max45", 
      "attrs": {"axis": "1"}, 
      "inputs": [[320, 0, 0]]
    }, 
    {
      "op": "argsort", 
      "name": "argsort30", 
      "attrs": {"axis": "2"}, 
      "inputs": [[321, 0, 0]]
    }, 
    {
      "op": "elemwise_add", 
      "name": "elemwise_add30", 
      "inputs": [[322, 0, 0], [321, 0, 0]]
    }, 
    {
      "op": "max", 
      "name": "max46", 
      "inputs": [[323, 0, 0]]
    }, 
    {
      "op": "broadcast_div", 
      "name": "broadcast_div30", 
      "inputs": [[323, 0, 0], [324, 0, 0]]
    }, 
    {
      "op": "argsort", 
      "name": "argsort31", 
      "attrs": {"axis": "1"}, 
      "inputs": [[321, 0, 0]]
    }, 
    {
      "op": "elemwise_add", 
      "name": "elemwise_add31", 
      "inputs": [[326, 0, 0], [321, 0, 0]]
    }, 
    {
      "op": "max", 
      "name": "max47", 
      "inputs": [[327, 0, 0]]
    }, 
    {
      "op": "broadcast_div", 
      "name": "broadcast_div31", 
      "inputs": [[327, 0, 0], [328, 0, 0]]
    }, 
    {
      "op": "stack", 
      "name": "stack15", 
      "attrs": {
        "axis": "1", 
        "num_args": "2"
      }, 
      "inputs": [[325, 0, 0], [329, 0, 0]]
    }, 
    {
      "op": "Concat", 
      "name": "concat15", 
      "attrs": {
        "dim": "1", 
        "num_args": "2"
      }, 
      "inputs": [[319, 0, 0], [330, 0, 0]]
    }, 
    {
      "op": "null", 
      "name": "DBstage2_unit1_conv2_weight", 
      "attrs": {
        "kernel": "(3, 3)", 
        "no_bias": "True", 
        "num_filter": "16", 
        "pad": "(1, 1)", 
        "stride": "(1, 1)", 
        "workspace": "512"
      }, 
      "inputs": []
    }, 
    {
      "op": "Convolution", 
      "name": "DBstage2_unit1_conv2", 
      "attrs": {
        "kernel": "(3, 3)", 
        "no_bias": "True", 
        "num_filter": "16", 
        "pad": "(1, 1)", 
        "stride": "(1, 1)", 
        "workspace": "512"
      }, 
      "inputs": [[331, 0, 0], [332, 0, 0]]
    }, 
    {
      "op": "Concat", 
      "name": "DBstage2_concat1", 
      "attrs": {"num_args": "2"}, 
      "inputs": [[293, 0, 0], [333, 0, 0]]
    }, 
    {
      "op": "null", 
      "name": "DBstage2_unit2_bn1_gamma", 
      "attrs": {
        "eps": "2e-05", 
        "fix_gamma": "False", 
        "momentum": "0.9"
      }, 
      "inputs": []
    }, 
    {
      "op": "null", 
      "name": "DBstage2_unit2_bn1_beta", 
      "attrs": {
        "eps": "2e-05", 
        "fix_gamma": "False", 
        "momentum": "0.9"
      }, 
      "inputs": []
    }, 
    {
      "op": "null", 
      "name": "DBstage2_unit2_bn1_moving_mean", 
      "attrs": {
        "__init__": "[\"zero\", {}]", 
        "eps": "2e-05", 
        "fix_gamma": "False", 
        "momentum": "0.9"
      }, 
      "inputs": []
    }, 
    {
      "op": "null", 
      "name": "DBstage2_unit2_bn1_moving_var", 
      "attrs": {
        "__init__": "[\"one\", {}]", 
        "eps": "2e-05", 
        "fix_gamma": "False", 
        "momentum": "0.9"
      }, 
      "inputs": []
    }, 
    {
      "op": "BatchNorm", 
      "name": "DBstage2_unit2_bn1", 
      "attrs": {
        "eps": "2e-05", 
        "fix_gamma": "False", 
        "momentum": "0.9"
      }, 
      "inputs": [[334, 0, 0], [335, 0, 0], [336, 0, 0], [337, 0, 1], [338, 0, 1]]
    }, 
    {
      "op": "Activation", 
      "name": "DBstage2_unit2_relu1", 
      "attrs": {"act_type": "relu"}, 
      "inputs": [[339, 0, 0]]
    }, 
    {
      "op": "ones_like", 
      "name": "ones_like16", 
      "inputs": [[340, 0, 0]]
    }, 
    {
      "op": "max", 
      "name": "max48", 
      "attrs": {"axis": "1"}, 
      "inputs": [[341, 0, 0]]
    }, 
    {
      "op": "argsort", 
      "name": "argsort32", 
      "attrs": {"axis": "2"}, 
      "inputs": [[342, 0, 0]]
    }, 
    {
      "op": "elemwise_add", 
      "name": "elemwise_add32", 
      "inputs": [[343, 0, 0], [342, 0, 0]]
    }, 
    {
      "op": "max", 
      "name": "max49", 
      "inputs": [[344, 0, 0]]
    }, 
    {
      "op": "broadcast_div", 
      "name": "broadcast_div32", 
      "inputs": [[344, 0, 0], [345, 0, 0]]
    }, 
    {
      "op": "argsort", 
      "name": "argsort33", 
      "attrs": {"axis": "1"}, 
      "inputs": [[342, 0, 0]]
    }, 
    {
      "op": "elemwise_add", 
      "name": "elemwise_add33", 
      "inputs": [[347, 0, 0], [342, 0, 0]]
    }, 
    {
      "op": "max", 
      "name": "max50", 
      "inputs": [[348, 0, 0]]
    }, 
    {
      "op": "broadcast_div", 
      "name": "broadcast_div33", 
      "inputs": [[348, 0, 0], [349, 0, 0]]
    }, 
    {
      "op": "stack", 
      "name": "stack16", 
      "attrs": {
        "axis": "1", 
        "num_args": "2"
      }, 
      "inputs": [[346, 0, 0], [350, 0, 0]]
    }, 
    {
      "op": "Concat", 
      "name": "concat16", 
      "attrs": {
        "dim": "1", 
        "num_args": "2"
      }, 
      "inputs": [[340, 0, 0], [351, 0, 0]]
    }, 
    {
      "op": "null", 
      "name": "DBstage2_unit2_conv1_weight", 
      "attrs": {
        "kernel": "(1, 1)", 
        "no_bias": "True", 
        "num_filter": "64", 
        "pad": "(0, 0)", 
        "stride": "(1, 1)", 
        "workspace": "512"
      }, 
      "inputs": []
    }, 
    {
      "op": "Convolution", 
      "name": "DBstage2_unit2_conv1", 
      "attrs": {
        "kernel": "(1, 1)", 
        "no_bias": "True", 
        "num_filter": "64", 
        "pad": "(0, 0)", 
        "stride": "(1, 1)", 
        "workspace": "512"
      }, 
      "inputs": [[352, 0, 0], [353, 0, 0]]
    }, 
    {
      "op": "null", 
      "name": "DBstage2_unit2_bn2_gamma", 
      "attrs": {
        "eps": "2e-05", 
        "fix_gamma": "False", 
        "momentum": "0.9"
      }, 
      "inputs": []
    }, 
    {
      "op": "null", 
      "name": "DBstage2_unit2_bn2_beta", 
      "attrs": {
        "eps": "2e-05", 
        "fix_gamma": "False", 
        "momentum": "0.9"
      }, 
      "inputs": []
    }, 
    {
      "op": "null", 
      "name": "DBstage2_unit2_bn2_moving_mean", 
      "attrs": {
        "__init__": "[\"zero\", {}]", 
        "eps": "2e-05", 
        "fix_gamma": "False", 
        "momentum": "0.9"
      }, 
      "inputs": []
    }, 
    {
      "op": "null", 
      "name": "DBstage2_unit2_bn2_moving_var", 
      "attrs": {
        "__init__": "[\"one\", {}]", 
        "eps": "2e-05", 
        "fix_gamma": "False", 
        "momentum": "0.9"
      }, 
      "inputs": []
    }, 
    {
      "op": "BatchNorm", 
      "name": "DBstage2_unit2_bn2", 
      "attrs": {
        "eps": "2e-05", 
        "fix_gamma": "False", 
        "momentum": "0.9"
      }, 
      "inputs": [[354, 0, 0], [355, 0, 0], [356, 0, 0], [357, 0, 1], [358, 0, 1]]
    }, 
    {
      "op": "Activation", 
      "name": "DBstage2_unit2_relu2", 
      "attrs": {"act_type": "relu"}, 
      "inputs": [[359, 0, 0]]
    }, 
    {
      "op": "ones_like", 
      "name": "ones_like17", 
      "inputs": [[360, 0, 0]]
    }, 
    {
      "op": "max", 
      "name": "max51", 
      "attrs": {"axis": "1"}, 
      "inputs": [[361, 0, 0]]
    }, 
    {
      "op": "argsort", 
      "name": "argsort34", 
      "attrs": {"axis": "2"}, 
      "inputs": [[362, 0, 0]]
    }, 
    {
      "op": "elemwise_add", 
      "name": "elemwise_add34", 
      "inputs": [[363, 0, 0], [362, 0, 0]]
    }, 
    {
      "op": "max", 
      "name": "max52", 
      "inputs": [[364, 0, 0]]
    }, 
    {
      "op": "broadcast_div", 
      "name": "broadcast_div34", 
      "inputs": [[364, 0, 0], [365, 0, 0]]
    }, 
    {
      "op": "argsort", 
      "name": "argsort35", 
      "attrs": {"axis": "1"}, 
      "inputs": [[362, 0, 0]]
    }, 
    {
      "op": "elemwise_add", 
      "name": "elemwise_add35", 
      "inputs": [[367, 0, 0], [362, 0, 0]]
    }, 
    {
      "op": "max", 
      "name": "max53", 
      "inputs": [[368, 0, 0]]
    }, 
    {
      "op": "broadcast_div", 
      "name": "broadcast_div35", 
      "inputs": [[368, 0, 0], [369, 0, 0]]
    }, 
    {
      "op": "stack", 
      "name": "stack17", 
      "attrs": {
        "axis": "1", 
        "num_args": "2"
      }, 
      "inputs": [[366, 0, 0], [370, 0, 0]]
    }, 
    {
      "op": "Concat", 
      "name": "concat17", 
      "attrs": {
        "dim": "1", 
        "num_args": "2"
      }, 
      "inputs": [[360, 0, 0], [371, 0, 0]]
    }, 
    {
      "op": "null", 
      "name": "DBstage2_unit2_conv2_weight", 
      "attrs": {
        "kernel": "(3, 3)", 
        "no_bias": "True", 
        "num_filter": "16", 
        "pad": "(1, 1)", 
        "stride": "(1, 1)", 
        "workspace": "512"
      }, 
      "inputs": []
    }, 
    {
      "op": "Convolution", 
      "name": "DBstage2_unit2_conv2", 
      "attrs": {
        "kernel": "(3, 3)", 
        "no_bias": "True", 
        "num_filter": "16", 
        "pad": "(1, 1)", 
        "stride": "(1, 1)", 
        "workspace": "512"
      }, 
      "inputs": [[372, 0, 0], [373, 0, 0]]
    }, 
    {
      "op": "Concat", 
      "name": "DBstage2_concat2", 
      "attrs": {"num_args": "2"}, 
      "inputs": [[334, 0, 0], [374, 0, 0]]
    }, 
    {
      "op": "null", 
      "name": "DBstage2_unit3_bn1_gamma", 
      "attrs": {
        "eps": "2e-05", 
        "fix_gamma": "False", 
        "momentum": "0.9"
      }, 
      "inputs": []
    }, 
    {
      "op": "null", 
      "name": "DBstage2_unit3_bn1_beta", 
      "attrs": {
        "eps": "2e-05", 
        "fix_gamma": "False", 
        "momentum": "0.9"
      }, 
      "inputs": []
    }, 
    {
      "op": "null", 
      "name": "DBstage2_unit3_bn1_moving_mean", 
      "attrs": {
        "__init__": "[\"zero\", {}]", 
        "eps": "2e-05", 
        "fix_gamma": "False", 
        "momentum": "0.9"
      }, 
      "inputs": []
    }, 
    {
      "op": "null", 
      "name": "DBstage2_unit3_bn1_moving_var", 
      "attrs": {
        "__init__": "[\"one\", {}]", 
        "eps": "2e-05", 
        "fix_gamma": "False", 
        "momentum": "0.9"
      }, 
      "inputs": []
    }, 
    {
      "op": "BatchNorm", 
      "name": "DBstage2_unit3_bn1", 
      "attrs": {
        "eps": "2e-05", 
        "fix_gamma": "False", 
        "momentum": "0.9"
      }, 
      "inputs": [[375, 0, 0], [376, 0, 0], [377, 0, 0], [378, 0, 1], [379, 0, 1]]
    }, 
    {
      "op": "Activation", 
      "name": "DBstage2_unit3_relu1", 
      "attrs": {"act_type": "relu"}, 
      "inputs": [[380, 0, 0]]
    }, 
    {
      "op": "ones_like", 
      "name": "ones_like18", 
      "inputs": [[381, 0, 0]]
    }, 
    {
      "op": "max", 
      "name": "max54", 
      "attrs": {"axis": "1"}, 
      "inputs": [[382, 0, 0]]
    }, 
    {
      "op": "argsort", 
      "name": "argsort36", 
      "attrs": {"axis": "2"}, 
      "inputs": [[383, 0, 0]]
    }, 
    {
      "op": "elemwise_add", 
      "name": "elemwise_add36", 
      "inputs": [[384, 0, 0], [383, 0, 0]]
    }, 
    {
      "op": "max", 
      "name": "max55", 
      "inputs": [[385, 0, 0]]
    }, 
    {
      "op": "broadcast_div", 
      "name": "broadcast_div36", 
      "inputs": [[385, 0, 0], [386, 0, 0]]
    }, 
    {
      "op": "argsort", 
      "name": "argsort37", 
      "attrs": {"axis": "1"}, 
      "inputs": [[383, 0, 0]]
    }, 
    {
      "op": "elemwise_add", 
      "name": "elemwise_add37", 
      "inputs": [[388, 0, 0], [383, 0, 0]]
    }, 
    {
      "op": "max", 
      "name": "max56", 
      "inputs": [[389, 0, 0]]
    }, 
    {
      "op": "broadcast_div", 
      "name": "broadcast_div37", 
      "inputs": [[389, 0, 0], [390, 0, 0]]
    }, 
    {
      "op": "stack", 
      "name": "stack18", 
      "attrs": {
        "axis": "1", 
        "num_args": "2"
      }, 
      "inputs": [[387, 0, 0], [391, 0, 0]]
    }, 
    {
      "op": "Concat", 
      "name": "concat18", 
      "attrs": {
        "dim": "1", 
        "num_args": "2"
      }, 
      "inputs": [[381, 0, 0], [392, 0, 0]]
    }, 
    {
      "op": "null", 
      "name": "DBstage2_unit3_conv1_weight", 
      "attrs": {
        "kernel": "(1, 1)", 
        "no_bias": "True", 
        "num_filter": "64", 
        "pad": "(0, 0)", 
        "stride": "(1, 1)", 
        "workspace": "512"
      }, 
      "inputs": []
    }, 
    {
      "op": "Convolution", 
      "name": "DBstage2_unit3_conv1", 
      "attrs": {
        "kernel": "(1, 1)", 
        "no_bias": "True", 
        "num_filter": "64", 
        "pad": "(0, 0)", 
        "stride": "(1, 1)", 
        "workspace": "512"
      }, 
      "inputs": [[393, 0, 0], [394, 0, 0]]
    }, 
    {
      "op": "null", 
      "name": "DBstage2_unit3_bn2_gamma", 
      "attrs": {
        "eps": "2e-05", 
        "fix_gamma": "False", 
        "momentum": "0.9"
      }, 
      "inputs": []
    }, 
    {
      "op": "null", 
      "name": "DBstage2_unit3_bn2_beta", 
      "attrs": {
        "eps": "2e-05", 
        "fix_gamma": "False", 
        "momentum": "0.9"
      }, 
      "inputs": []
    }, 
    {
      "op": "null", 
      "name": "DBstage2_unit3_bn2_moving_mean", 
      "attrs": {
        "__init__": "[\"zero\", {}]", 
        "eps": "2e-05", 
        "fix_gamma": "False", 
        "momentum": "0.9"
      }, 
      "inputs": []
    }, 
    {
      "op": "null", 
      "name": "DBstage2_unit3_bn2_moving_var", 
      "attrs": {
        "__init__": "[\"one\", {}]", 
        "eps": "2e-05", 
        "fix_gamma": "False", 
        "momentum": "0.9"
      }, 
      "inputs": []
    }, 
    {
      "op": "BatchNorm", 
      "name": "DBstage2_unit3_bn2", 
      "attrs": {
        "eps": "2e-05", 
        "fix_gamma": "False", 
        "momentum": "0.9"
      }, 
      "inputs": [[395, 0, 0], [396, 0, 0], [397, 0, 0], [398, 0, 1], [399, 0, 1]]
    }, 
    {
      "op": "Activation", 
      "name": "DBstage2_unit3_relu2", 
      "attrs": {"act_type": "relu"}, 
      "inputs": [[400, 0, 0]]
    }, 
    {
      "op": "ones_like", 
      "name": "ones_like19", 
      "inputs": [[401, 0, 0]]
    }, 
    {
      "op": "max", 
      "name": "max57", 
      "attrs": {"axis": "1"}, 
      "inputs": [[402, 0, 0]]
    }, 
    {
      "op": "argsort", 
      "name": "argsort38", 
      "attrs": {"axis": "2"}, 
      "inputs": [[403, 0, 0]]
    }, 
    {
      "op": "elemwise_add", 
      "name": "elemwise_add38", 
      "inputs": [[404, 0, 0], [403, 0, 0]]
    }, 
    {
      "op": "max", 
      "name": "max58", 
      "inputs": [[405, 0, 0]]
    }, 
    {
      "op": "broadcast_div", 
      "name": "broadcast_div38", 
      "inputs": [[405, 0, 0], [406, 0, 0]]
    }, 
    {
      "op": "argsort", 
      "name": "argsort39", 
      "attrs": {"axis": "1"}, 
      "inputs": [[403, 0, 0]]
    }, 
    {
      "op": "elemwise_add", 
      "name": "elemwise_add39", 
      "inputs": [[408, 0, 0], [403, 0, 0]]
    }, 
    {
      "op": "max", 
      "name": "max59", 
      "inputs": [[409, 0, 0]]
    }, 
    {
      "op": "broadcast_div", 
      "name": "broadcast_div39", 
      "inputs": [[409, 0, 0], [410, 0, 0]]
    }, 
    {
      "op": "stack", 
      "name": "stack19", 
      "attrs": {
        "axis": "1", 
        "num_args": "2"
      }, 
      "inputs": [[407, 0, 0], [411, 0, 0]]
    }, 
    {
      "op": "Concat", 
      "name": "concat19", 
      "attrs": {
        "dim": "1", 
        "num_args": "2"
      }, 
      "inputs": [[401, 0, 0], [412, 0, 0]]
    }, 
    {
      "op": "null", 
      "name": "DBstage2_unit3_conv2_weight", 
      "attrs": {
        "kernel": "(3, 3)", 
        "no_bias": "True", 
        "num_filter": "16", 
        "pad": "(1, 1)", 
        "stride": "(1, 1)", 
        "workspace": "512"
      }, 
      "inputs": []
    }, 
    {
      "op": "Convolution", 
      "name": "DBstage2_unit3_conv2", 
      "attrs": {
        "kernel": "(3, 3)", 
        "no_bias": "True", 
        "num_filter": "16", 
        "pad": "(1, 1)", 
        "stride": "(1, 1)", 
        "workspace": "512"
      }, 
      "inputs": [[413, 0, 0], [414, 0, 0]]
    }, 
    {
      "op": "Concat", 
      "name": "DBstage2_concat3", 
      "attrs": {"num_args": "2"}, 
      "inputs": [[375, 0, 0], [415, 0, 0]]
    }, 
    {
      "op": "null", 
      "name": "DBstage2_unit4_bn1_gamma", 
      "attrs": {
        "eps": "2e-05", 
        "fix_gamma": "False", 
        "momentum": "0.9"
      }, 
      "inputs": []
    }, 
    {
      "op": "null", 
      "name": "DBstage2_unit4_bn1_beta", 
      "attrs": {
        "eps": "2e-05", 
        "fix_gamma": "False", 
        "momentum": "0.9"
      }, 
      "inputs": []
    }, 
    {
      "op": "null", 
      "name": "DBstage2_unit4_bn1_moving_mean", 
      "attrs": {
        "__init__": "[\"zero\", {}]", 
        "eps": "2e-05", 
        "fix_gamma": "False", 
        "momentum": "0.9"
      }, 
      "inputs": []
    }, 
    {
      "op": "null", 
      "name": "DBstage2_unit4_bn1_moving_var", 
      "attrs": {
        "__init__": "[\"one\", {}]", 
        "eps": "2e-05", 
        "fix_gamma": "False", 
        "momentum": "0.9"
      }, 
      "inputs": []
    }, 
    {
      "op": "BatchNorm", 
      "name": "DBstage2_unit4_bn1", 
      "attrs": {
        "eps": "2e-05", 
        "fix_gamma": "False", 
        "momentum": "0.9"
      }, 
      "inputs": [[416, 0, 0], [417, 0, 0], [418, 0, 0], [419, 0, 1], [420, 0, 1]]
    }, 
    {
      "op": "Activation", 
      "name": "DBstage2_unit4_relu1", 
      "attrs": {"act_type": "relu"}, 
      "inputs": [[421, 0, 0]]
    }, 
    {
      "op": "ones_like", 
      "name": "ones_like20", 
      "inputs": [[422, 0, 0]]
    }, 
    {
      "op": "max", 
      "name": "max60", 
      "attrs": {"axis": "1"}, 
      "inputs": [[423, 0, 0]]
    }, 
    {
      "op": "argsort", 
      "name": "argsort40", 
      "attrs": {"axis": "2"}, 
      "inputs": [[424, 0, 0]]
    }, 
    {
      "op": "elemwise_add", 
      "name": "elemwise_add40", 
      "inputs": [[425, 0, 0], [424, 0, 0]]
    }, 
    {
      "op": "max", 
      "name": "max61", 
      "inputs": [[426, 0, 0]]
    }, 
    {
      "op": "broadcast_div", 
      "name": "broadcast_div40", 
      "inputs": [[426, 0, 0], [427, 0, 0]]
    }, 
    {
      "op": "argsort", 
      "name": "argsort41", 
      "attrs": {"axis": "1"}, 
      "inputs": [[424, 0, 0]]
    }, 
    {
      "op": "elemwise_add", 
      "name": "elemwise_add41", 
      "inputs": [[429, 0, 0], [424, 0, 0]]
    }, 
    {
      "op": "max", 
      "name": "max62", 
      "inputs": [[430, 0, 0]]
    }, 
    {
      "op": "broadcast_div", 
      "name": "broadcast_div41", 
      "inputs": [[430, 0, 0], [431, 0, 0]]
    }, 
    {
      "op": "stack", 
      "name": "stack20", 
      "attrs": {
        "axis": "1", 
        "num_args": "2"
      }, 
      "inputs": [[428, 0, 0], [432, 0, 0]]
    }, 
    {
      "op": "Concat", 
      "name": "concat20", 
      "attrs": {
        "dim": "1", 
        "num_args": "2"
      }, 
      "inputs": [[422, 0, 0], [433, 0, 0]]
    }, 
    {
      "op": "null", 
      "name": "DBstage2_unit4_conv1_weight", 
      "attrs": {
        "kernel": "(1, 1)", 
        "no_bias": "True", 
        "num_filter": "64", 
        "pad": "(0, 0)", 
        "stride": "(1, 1)", 
        "workspace": "512"
      }, 
      "inputs": []
    }, 
    {
      "op": "Convolution", 
      "name": "DBstage2_unit4_conv1", 
      "attrs": {
        "kernel": "(1, 1)", 
        "no_bias": "True", 
        "num_filter": "64", 
        "pad": "(0, 0)", 
        "stride": "(1, 1)", 
        "workspace": "512"
      }, 
      "inputs": [[434, 0, 0], [435, 0, 0]]
    }, 
    {
      "op": "null", 
      "name": "DBstage2_unit4_bn2_gamma", 
      "attrs": {
        "eps": "2e-05", 
        "fix_gamma": "False", 
        "momentum": "0.9"
      }, 
      "inputs": []
    }, 
    {
      "op": "null", 
      "name": "DBstage2_unit4_bn2_beta", 
      "attrs": {
        "eps": "2e-05", 
        "fix_gamma": "False", 
        "momentum": "0.9"
      }, 
      "inputs": []
    }, 
    {
      "op": "null", 
      "name": "DBstage2_unit4_bn2_moving_mean", 
      "attrs": {
        "__init__": "[\"zero\", {}]", 
        "eps": "2e-05", 
        "fix_gamma": "False", 
        "momentum": "0.9"
      }, 
      "inputs": []
    }, 
    {
      "op": "null", 
      "name": "DBstage2_unit4_bn2_moving_var", 
      "attrs": {
        "__init__": "[\"one\", {}]", 
        "eps": "2e-05", 
        "fix_gamma": "False", 
        "momentum": "0.9"
      }, 
      "inputs": []
    }, 
    {
      "op": "BatchNorm", 
      "name": "DBstage2_unit4_bn2", 
      "attrs": {
        "eps": "2e-05", 
        "fix_gamma": "False", 
        "momentum": "0.9"
      }, 
      "inputs": [[436, 0, 0], [437, 0, 0], [438, 0, 0], [439, 0, 1], [440, 0, 1]]
    }, 
    {
      "op": "Activation", 
      "name": "DBstage2_unit4_relu2", 
      "attrs": {"act_type": "relu"}, 
      "inputs": [[441, 0, 0]]
    }, 
    {
      "op": "ones_like", 
      "name": "ones_like21", 
      "inputs": [[442, 0, 0]]
    }, 
    {
      "op": "max", 
      "name": "max63", 
      "attrs": {"axis": "1"}, 
      "inputs": [[443, 0, 0]]
    }, 
    {
      "op": "argsort", 
      "name": "argsort42", 
      "attrs": {"axis": "2"}, 
      "inputs": [[444, 0, 0]]
    }, 
    {
      "op": "elemwise_add", 
      "name": "elemwise_add42", 
      "inputs": [[445, 0, 0], [444, 0, 0]]
    }, 
    {
      "op": "max", 
      "name": "max64", 
      "inputs": [[446, 0, 0]]
    }, 
    {
      "op": "broadcast_div", 
      "name": "broadcast_div42", 
      "inputs": [[446, 0, 0], [447, 0, 0]]
    }, 
    {
      "op": "argsort", 
      "name": "argsort43", 
      "attrs": {"axis": "1"}, 
      "inputs": [[444, 0, 0]]
    }, 
    {
      "op": "elemwise_add", 
      "name": "elemwise_add43", 
      "inputs": [[449, 0, 0], [444, 0, 0]]
    }, 
    {
      "op": "max", 
      "name": "max65", 
      "inputs": [[450, 0, 0]]
    }, 
    {
      "op": "broadcast_div", 
      "name": "broadcast_div43", 
      "inputs": [[450, 0, 0], [451, 0, 0]]
    }, 
    {
      "op": "stack", 
      "name": "stack21", 
      "attrs": {
        "axis": "1", 
        "num_args": "2"
      }, 
      "inputs": [[448, 0, 0], [452, 0, 0]]
    }, 
    {
      "op": "Concat", 
      "name": "concat21", 
      "attrs": {
        "dim": "1", 
        "num_args": "2"
      }, 
      "inputs": [[442, 0, 0], [453, 0, 0]]
    }, 
    {
      "op": "null", 
      "name": "DBstage2_unit4_conv2_weight", 
      "attrs": {
        "kernel": "(3, 3)", 
        "no_bias": "True", 
        "num_filter": "16", 
        "pad": "(1, 1)", 
        "stride": "(1, 1)", 
        "workspace": "512"
      }, 
      "inputs": []
    }, 
    {
      "op": "Convolution", 
      "name": "DBstage2_unit4_conv2", 
      "attrs": {
        "kernel": "(3, 3)", 
        "no_bias": "True", 
        "num_filter": "16", 
        "pad": "(1, 1)", 
        "stride": "(1, 1)", 
        "workspace": "512"
      }, 
      "inputs": [[454, 0, 0], [455, 0, 0]]
    }, 
    {
      "op": "Concat", 
      "name": "DBstage2_concat4", 
      "attrs": {"num_args": "2"}, 
      "inputs": [[416, 0, 0], [456, 0, 0]]
    }, 
    {
      "op": "null", 
      "name": "DBstage2_unit5_bn1_gamma", 
      "attrs": {
        "eps": "2e-05", 
        "fix_gamma": "False", 
        "momentum": "0.9"
      }, 
      "inputs": []
    }, 
    {
      "op": "null", 
      "name": "DBstage2_unit5_bn1_beta", 
      "attrs": {
        "eps": "2e-05", 
        "fix_gamma": "False", 
        "momentum": "0.9"
      }, 
      "inputs": []
    }, 
    {
      "op": "null", 
      "name": "DBstage2_unit5_bn1_moving_mean", 
      "attrs": {
        "__init__": "[\"zero\", {}]", 
        "eps": "2e-05", 
        "fix_gamma": "False", 
        "momentum": "0.9"
      }, 
      "inputs": []
    }, 
    {
      "op": "null", 
      "name": "DBstage2_unit5_bn1_moving_var", 
      "attrs": {
        "__init__": "[\"one\", {}]", 
        "eps": "2e-05", 
        "fix_gamma": "False", 
        "momentum": "0.9"
      }, 
      "inputs": []
    }, 
    {
      "op": "BatchNorm", 
      "name": "DBstage2_unit5_bn1", 
      "attrs": {
        "eps": "2e-05", 
        "fix_gamma": "False", 
        "momentum": "0.9"
      }, 
      "inputs": [[457, 0, 0], [458, 0, 0], [459, 0, 0], [460, 0, 1], [461, 0, 1]]
    }, 
    {
      "op": "Activation", 
      "name": "DBstage2_unit5_relu1", 
      "attrs": {"act_type": "relu"}, 
      "inputs": [[462, 0, 0]]
    }, 
    {
      "op": "ones_like", 
      "name": "ones_like22", 
      "inputs": [[463, 0, 0]]
    }, 
    {
      "op": "max", 
      "name": "max66", 
      "attrs": {"axis": "1"}, 
      "inputs": [[464, 0, 0]]
    }, 
    {
      "op": "argsort", 
      "name": "argsort44", 
      "attrs": {"axis": "2"}, 
      "inputs": [[465, 0, 0]]
    }, 
    {
      "op": "elemwise_add", 
      "name": "elemwise_add44", 
      "inputs": [[466, 0, 0], [465, 0, 0]]
    }, 
    {
      "op": "max", 
      "name": "max67", 
      "inputs": [[467, 0, 0]]
    }, 
    {
      "op": "broadcast_div", 
      "name": "broadcast_div44", 
      "inputs": [[467, 0, 0], [468, 0, 0]]
    }, 
    {
      "op": "argsort", 
      "name": "argsort45", 
      "attrs": {"axis": "1"}, 
      "inputs": [[465, 0, 0]]
    }, 
    {
      "op": "elemwise_add", 
      "name": "elemwise_add45", 
      "inputs": [[470, 0, 0], [465, 0, 0]]
    }, 
    {
      "op": "max", 
      "name": "max68", 
      "inputs": [[471, 0, 0]]
    }, 
    {
      "op": "broadcast_div", 
      "name": "broadcast_div45", 
      "inputs": [[471, 0, 0], [472, 0, 0]]
    }, 
    {
      "op": "stack", 
      "name": "stack22", 
      "attrs": {
        "axis": "1", 
        "num_args": "2"
      }, 
      "inputs": [[469, 0, 0], [473, 0, 0]]
    }, 
    {
      "op": "Concat", 
      "name": "concat22", 
      "attrs": {
        "dim": "1", 
        "num_args": "2"
      }, 
      "inputs": [[463, 0, 0], [474, 0, 0]]
    }, 
    {
      "op": "null", 
      "name": "DBstage2_unit5_conv1_weight", 
      "attrs": {
        "kernel": "(1, 1)", 
        "no_bias": "True", 
        "num_filter": "64", 
        "pad": "(0, 0)", 
        "stride": "(1, 1)", 
        "workspace": "512"
      }, 
      "inputs": []
    }, 
    {
      "op": "Convolution", 
      "name": "DBstage2_unit5_conv1", 
      "attrs": {
        "kernel": "(1, 1)", 
        "no_bias": "True", 
        "num_filter": "64", 
        "pad": "(0, 0)", 
        "stride": "(1, 1)", 
        "workspace": "512"
      }, 
      "inputs": [[475, 0, 0], [476, 0, 0]]
    }, 
    {
      "op": "null", 
      "name": "DBstage2_unit5_bn2_gamma", 
      "attrs": {
        "eps": "2e-05", 
        "fix_gamma": "False", 
        "momentum": "0.9"
      }, 
      "inputs": []
    }, 
    {
      "op": "null", 
      "name": "DBstage2_unit5_bn2_beta", 
      "attrs": {
        "eps": "2e-05", 
        "fix_gamma": "False", 
        "momentum": "0.9"
      }, 
      "inputs": []
    }, 
    {
      "op": "null", 
      "name": "DBstage2_unit5_bn2_moving_mean", 
      "attrs": {
        "__init__": "[\"zero\", {}]", 
        "eps": "2e-05", 
        "fix_gamma": "False", 
        "momentum": "0.9"
      }, 
      "inputs": []
    }, 
    {
      "op": "null", 
      "name": "DBstage2_unit5_bn2_moving_var", 
      "attrs": {
        "__init__": "[\"one\", {}]", 
        "eps": "2e-05", 
        "fix_gamma": "False", 
        "momentum": "0.9"
      }, 
      "inputs": []
    }, 
    {
      "op": "BatchNorm", 
      "name": "DBstage2_unit5_bn2", 
      "attrs": {
        "eps": "2e-05", 
        "fix_gamma": "False", 
        "momentum": "0.9"
      }, 
      "inputs": [[477, 0, 0], [478, 0, 0], [479, 0, 0], [480, 0, 1], [481, 0, 1]]
    }, 
    {
      "op": "Activation", 
      "name": "DBstage2_unit5_relu2", 
      "attrs": {"act_type": "relu"}, 
      "inputs": [[482, 0, 0]]
    }, 
    {
      "op": "ones_like", 
      "name": "ones_like23", 
      "inputs": [[483, 0, 0]]
    }, 
    {
      "op": "max", 
      "name": "max69", 
      "attrs": {"axis": "1"}, 
      "inputs": [[484, 0, 0]]
    }, 
    {
      "op": "argsort", 
      "name": "argsort46", 
      "attrs": {"axis": "2"}, 
      "inputs": [[485, 0, 0]]
    }, 
    {
      "op": "elemwise_add", 
      "name": "elemwise_add46", 
      "inputs": [[486, 0, 0], [485, 0, 0]]
    }, 
    {
      "op": "max", 
      "name": "max70", 
      "inputs": [[487, 0, 0]]
    }, 
    {
      "op": "broadcast_div", 
      "name": "broadcast_div46", 
      "inputs": [[487, 0, 0], [488, 0, 0]]
    }, 
    {
      "op": "argsort", 
      "name": "argsort47", 
      "attrs": {"axis": "1"}, 
      "inputs": [[485, 0, 0]]
    }, 
    {
      "op": "elemwise_add", 
      "name": "elemwise_add47", 
      "inputs": [[490, 0, 0], [485, 0, 0]]
    }, 
    {
      "op": "max", 
      "name": "max71", 
      "inputs": [[491, 0, 0]]
    }, 
    {
      "op": "broadcast_div", 
      "name": "broadcast_div47", 
      "inputs": [[491, 0, 0], [492, 0, 0]]
    }, 
    {
      "op": "stack", 
      "name": "stack23", 
      "attrs": {
        "axis": "1", 
        "num_args": "2"
      }, 
      "inputs": [[489, 0, 0], [493, 0, 0]]
    }, 
    {
      "op": "Concat", 
      "name": "concat23", 
      "attrs": {
        "dim": "1", 
        "num_args": "2"
      }, 
      "inputs": [[483, 0, 0], [494, 0, 0]]
    }, 
    {
      "op": "null", 
      "name": "DBstage2_unit5_conv2_weight", 
      "attrs": {
        "kernel": "(3, 3)", 
        "no_bias": "True", 
        "num_filter": "16", 
        "pad": "(1, 1)", 
        "stride": "(1, 1)", 
        "workspace": "512"
      }, 
      "inputs": []
    }, 
    {
      "op": "Convolution", 
      "name": "DBstage2_unit5_conv2", 
      "attrs": {
        "kernel": "(3, 3)", 
        "no_bias": "True", 
        "num_filter": "16", 
        "pad": "(1, 1)", 
        "stride": "(1, 1)", 
        "workspace": "512"
      }, 
      "inputs": [[495, 0, 0], [496, 0, 0]]
    }, 
    {
      "op": "Concat", 
      "name": "DBstage2_concat5", 
      "attrs": {"num_args": "2"}, 
      "inputs": [[457, 0, 0], [497, 0, 0]]
    }, 
    {
      "op": "null", 
      "name": "DBstage2_unit6_bn1_gamma", 
      "attrs": {
        "eps": "2e-05", 
        "fix_gamma": "False", 
        "momentum": "0.9"
      }, 
      "inputs": []
    }, 
    {
      "op": "null", 
      "name": "DBstage2_unit6_bn1_beta", 
      "attrs": {
        "eps": "2e-05", 
        "fix_gamma": "False", 
        "momentum": "0.9"
      }, 
      "inputs": []
    }, 
    {
      "op": "null", 
      "name": "DBstage2_unit6_bn1_moving_mean", 
      "attrs": {
        "__init__": "[\"zero\", {}]", 
        "eps": "2e-05", 
        "fix_gamma": "False", 
        "momentum": "0.9"
      }, 
      "inputs": []
    }, 
    {
      "op": "null", 
      "name": "DBstage2_unit6_bn1_moving_var", 
      "attrs": {
        "__init__": "[\"one\", {}]", 
        "eps": "2e-05", 
        "fix_gamma": "False", 
        "momentum": "0.9"
      }, 
      "inputs": []
    }, 
    {
      "op": "BatchNorm", 
      "name": "DBstage2_unit6_bn1", 
      "attrs": {
        "eps": "2e-05", 
        "fix_gamma": "False", 
        "momentum": "0.9"
      }, 
      "inputs": [[498, 0, 0], [499, 0, 0], [500, 0, 0], [501, 0, 1], [502, 0, 1]]
    }, 
    {
      "op": "Activation", 
      "name": "DBstage2_unit6_relu1", 
      "attrs": {"act_type": "relu"}, 
      "inputs": [[503, 0, 0]]
    }, 
    {
      "op": "ones_like", 
      "name": "ones_like24", 
      "inputs": [[504, 0, 0]]
    }, 
    {
      "op": "max", 
      "name": "max72", 
      "attrs": {"axis": "1"}, 
      "inputs": [[505, 0, 0]]
    }, 
    {
      "op": "argsort", 
      "name": "argsort48", 
      "attrs": {"axis": "2"}, 
      "inputs": [[506, 0, 0]]
    }, 
    {
      "op": "elemwise_add", 
      "name": "elemwise_add48", 
      "inputs": [[507, 0, 0], [506, 0, 0]]
    }, 
    {
      "op": "max", 
      "name": "max73", 
      "inputs": [[508, 0, 0]]
    }, 
    {
      "op": "broadcast_div", 
      "name": "broadcast_div48", 
      "inputs": [[508, 0, 0], [509, 0, 0]]
    }, 
    {
      "op": "argsort", 
      "name": "argsort49", 
      "attrs": {"axis": "1"}, 
      "inputs": [[506, 0, 0]]
    }, 
    {
      "op": "elemwise_add", 
      "name": "elemwise_add49", 
      "inputs": [[511, 0, 0], [506, 0, 0]]
    }, 
    {
      "op": "max", 
      "name": "max74", 
      "inputs": [[512, 0, 0]]
    }, 
    {
      "op": "broadcast_div", 
      "name": "broadcast_div49", 
      "inputs": [[512, 0, 0], [513, 0, 0]]
    }, 
    {
      "op": "stack", 
      "name": "stack24", 
      "attrs": {
        "axis": "1", 
        "num_args": "2"
      }, 
      "inputs": [[510, 0, 0], [514, 0, 0]]
    }, 
    {
      "op": "Concat", 
      "name": "concat24", 
      "attrs": {
        "dim": "1", 
        "num_args": "2"
      }, 
      "inputs": [[504, 0, 0], [515, 0, 0]]
    }, 
    {
      "op": "null", 
      "name": "DBstage2_unit6_conv1_weight", 
      "attrs": {
        "kernel": "(1, 1)", 
        "no_bias": "True", 
        "num_filter": "64", 
        "pad": "(0, 0)", 
        "stride": "(1, 1)", 
        "workspace": "512"
      }, 
      "inputs": []
    }, 
    {
      "op": "Convolution", 
      "name": "DBstage2_unit6_conv1", 
      "attrs": {
        "kernel": "(1, 1)", 
        "no_bias": "True", 
        "num_filter": "64", 
        "pad": "(0, 0)", 
        "stride": "(1, 1)", 
        "workspace": "512"
      }, 
      "inputs": [[516, 0, 0], [517, 0, 0]]
    }, 
    {
      "op": "null", 
      "name": "DBstage2_unit6_bn2_gamma", 
      "attrs": {
        "eps": "2e-05", 
        "fix_gamma": "False", 
        "momentum": "0.9"
      }, 
      "inputs": []
    }, 
    {
      "op": "null", 
      "name": "DBstage2_unit6_bn2_beta", 
      "attrs": {
        "eps": "2e-05", 
        "fix_gamma": "False", 
        "momentum": "0.9"
      }, 
      "inputs": []
    }, 
    {
      "op": "null", 
      "name": "DBstage2_unit6_bn2_moving_mean", 
      "attrs": {
        "__init__": "[\"zero\", {}]", 
        "eps": "2e-05", 
        "fix_gamma": "False", 
        "momentum": "0.9"
      }, 
      "inputs": []
    }, 
    {
      "op": "null", 
      "name": "DBstage2_unit6_bn2_moving_var", 
      "attrs": {
        "__init__": "[\"one\", {}]", 
        "eps": "2e-05", 
        "fix_gamma": "False", 
        "momentum": "0.9"
      }, 
      "inputs": []
    }, 
    {
      "op": "BatchNorm", 
      "name": "DBstage2_unit6_bn2", 
      "attrs": {
        "eps": "2e-05", 
        "fix_gamma": "False", 
        "momentum": "0.9"
      }, 
      "inputs": [[518, 0, 0], [519, 0, 0], [520, 0, 0], [521, 0, 1], [522, 0, 1]]
    }, 
    {
      "op": "Activation", 
      "name": "DBstage2_unit6_relu2", 
      "attrs": {"act_type": "relu"}, 
      "inputs": [[523, 0, 0]]
    }, 
    {
      "op": "ones_like", 
      "name": "ones_like25", 
      "inputs": [[524, 0, 0]]
    }, 
    {
      "op": "max", 
      "name": "max75", 
      "attrs": {"axis": "1"}, 
      "inputs": [[525, 0, 0]]
    }, 
    {
      "op": "argsort", 
      "name": "argsort50", 
      "attrs": {"axis": "2"}, 
      "inputs": [[526, 0, 0]]
    }, 
    {
      "op": "elemwise_add", 
      "name": "elemwise_add50", 
      "inputs": [[527, 0, 0], [526, 0, 0]]
    }, 
    {
      "op": "max", 
      "name": "max76", 
      "inputs": [[528, 0, 0]]
    }, 
    {
      "op": "broadcast_div", 
      "name": "broadcast_div50", 
      "inputs": [[528, 0, 0], [529, 0, 0]]
    }, 
    {
      "op": "argsort", 
      "name": "argsort51", 
      "attrs": {"axis": "1"}, 
      "inputs": [[526, 0, 0]]
    }, 
    {
      "op": "elemwise_add", 
      "name": "elemwise_add51", 
      "inputs": [[531, 0, 0], [526, 0, 0]]
    }, 
    {
      "op": "max", 
      "name": "max77", 
      "inputs": [[532, 0, 0]]
    }, 
    {
      "op": "broadcast_div", 
      "name": "broadcast_div51", 
      "inputs": [[532, 0, 0], [533, 0, 0]]
    }, 
    {
      "op": "stack", 
      "name": "stack25", 
      "attrs": {
        "axis": "1", 
        "num_args": "2"
      }, 
      "inputs": [[530, 0, 0], [534, 0, 0]]
    }, 
    {
      "op": "Concat", 
      "name": "concat25", 
      "attrs": {
        "dim": "1", 
        "num_args": "2"
      }, 
      "inputs": [[524, 0, 0], [535, 0, 0]]
    }, 
    {
      "op": "null", 
      "name": "DBstage2_unit6_conv2_weight", 
      "attrs": {
        "kernel": "(3, 3)", 
        "no_bias": "True", 
        "num_filter": "16", 
        "pad": "(1, 1)", 
        "stride": "(1, 1)", 
        "workspace": "512"
      }, 
      "inputs": []
    }, 
    {
      "op": "Convolution", 
      "name": "DBstage2_unit6_conv2", 
      "attrs": {
        "kernel": "(3, 3)", 
        "no_bias": "True", 
        "num_filter": "16", 
        "pad": "(1, 1)", 
        "stride": "(1, 1)", 
        "workspace": "512"
      }, 
      "inputs": [[536, 0, 0], [537, 0, 0]]
    }, 
    {
      "op": "Concat", 
      "name": "DBstage2_concat6", 
      "attrs": {"num_args": "2"}, 
      "inputs": [[498, 0, 0], [538, 0, 0]]
    }, 
    {
      "op": "null", 
      "name": "DBstage2_unit7_bn1_gamma", 
      "attrs": {
        "eps": "2e-05", 
        "fix_gamma": "False", 
        "momentum": "0.9"
      }, 
      "inputs": []
    }, 
    {
      "op": "null", 
      "name": "DBstage2_unit7_bn1_beta", 
      "attrs": {
        "eps": "2e-05", 
        "fix_gamma": "False", 
        "momentum": "0.9"
      }, 
      "inputs": []
    }, 
    {
      "op": "null", 
      "name": "DBstage2_unit7_bn1_moving_mean", 
      "attrs": {
        "__init__": "[\"zero\", {}]", 
        "eps": "2e-05", 
        "fix_gamma": "False", 
        "momentum": "0.9"
      }, 
      "inputs": []
    }, 
    {
      "op": "null", 
      "name": "DBstage2_unit7_bn1_moving_var", 
      "attrs": {
        "__init__": "[\"one\", {}]", 
        "eps": "2e-05", 
        "fix_gamma": "False", 
        "momentum": "0.9"
      }, 
      "inputs": []
    }, 
    {
      "op": "BatchNorm", 
      "name": "DBstage2_unit7_bn1", 
      "attrs": {
        "eps": "2e-05", 
        "fix_gamma": "False", 
        "momentum": "0.9"
      }, 
      "inputs": [[539, 0, 0], [540, 0, 0], [541, 0, 0], [542, 0, 1], [543, 0, 1]]
    }, 
    {
      "op": "Activation", 
      "name": "DBstage2_unit7_relu1", 
      "attrs": {"act_type": "relu"}, 
      "inputs": [[544, 0, 0]]
    }, 
    {
      "op": "ones_like", 
      "name": "ones_like26", 
      "inputs": [[545, 0, 0]]
    }, 
    {
      "op": "max", 
      "name": "max78", 
      "attrs": {"axis": "1"}, 
      "inputs": [[546, 0, 0]]
    }, 
    {
      "op": "argsort", 
      "name": "argsort52", 
      "attrs": {"axis": "2"}, 
      "inputs": [[547, 0, 0]]
    }, 
    {
      "op": "elemwise_add", 
      "name": "elemwise_add52", 
      "inputs": [[548, 0, 0], [547, 0, 0]]
    }, 
    {
      "op": "max", 
      "name": "max79", 
      "inputs": [[549, 0, 0]]
    }, 
    {
      "op": "broadcast_div", 
      "name": "broadcast_div52", 
      "inputs": [[549, 0, 0], [550, 0, 0]]
    }, 
    {
      "op": "argsort", 
      "name": "argsort53", 
      "attrs": {"axis": "1"}, 
      "inputs": [[547, 0, 0]]
    }, 
    {
      "op": "elemwise_add", 
      "name": "elemwise_add53", 
      "inputs": [[552, 0, 0], [547, 0, 0]]
    }, 
    {
      "op": "max", 
      "name": "max80", 
      "inputs": [[553, 0, 0]]
    }, 
    {
      "op": "broadcast_div", 
      "name": "broadcast_div53", 
      "inputs": [[553, 0, 0], [554, 0, 0]]
    }, 
    {
      "op": "stack", 
      "name": "stack26", 
      "attrs": {
        "axis": "1", 
        "num_args": "2"
      }, 
      "inputs": [[551, 0, 0], [555, 0, 0]]
    }, 
    {
      "op": "Concat", 
      "name": "concat26", 
      "attrs": {
        "dim": "1", 
        "num_args": "2"
      }, 
      "inputs": [[545, 0, 0], [556, 0, 0]]
    }, 
    {
      "op": "null", 
      "name": "DBstage2_unit7_conv1_weight", 
      "attrs": {
        "kernel": "(1, 1)", 
        "no_bias": "True", 
        "num_filter": "64", 
        "pad": "(0, 0)", 
        "stride": "(1, 1)", 
        "workspace": "512"
      }, 
      "inputs": []
    }, 
    {
      "op": "Convolution", 
      "name": "DBstage2_unit7_conv1", 
      "attrs": {
        "kernel": "(1, 1)", 
        "no_bias": "True", 
        "num_filter": "64", 
        "pad": "(0, 0)", 
        "stride": "(1, 1)", 
        "workspace": "512"
      }, 
      "inputs": [[557, 0, 0], [558, 0, 0]]
    }, 
    {
      "op": "null", 
      "name": "DBstage2_unit7_bn2_gamma", 
      "attrs": {
        "eps": "2e-05", 
        "fix_gamma": "False", 
        "momentum": "0.9"
      }, 
      "inputs": []
    }, 
    {
      "op": "null", 
      "name": "DBstage2_unit7_bn2_beta", 
      "attrs": {
        "eps": "2e-05", 
        "fix_gamma": "False", 
        "momentum": "0.9"
      }, 
      "inputs": []
    }, 
    {
      "op": "null", 
      "name": "DBstage2_unit7_bn2_moving_mean", 
      "attrs": {
        "__init__": "[\"zero\", {}]", 
        "eps": "2e-05", 
        "fix_gamma": "False", 
        "momentum": "0.9"
      }, 
      "inputs": []
    }, 
    {
      "op": "null", 
      "name": "DBstage2_unit7_bn2_moving_var", 
      "attrs": {
        "__init__": "[\"one\", {}]", 
        "eps": "2e-05", 
        "fix_gamma": "False", 
        "momentum": "0.9"
      }, 
      "inputs": []
    }, 
    {
      "op": "BatchNorm", 
      "name": "DBstage2_unit7_bn2", 
      "attrs": {
        "eps": "2e-05", 
        "fix_gamma": "False", 
        "momentum": "0.9"
      }, 
      "inputs": [[559, 0, 0], [560, 0, 0], [561, 0, 0], [562, 0, 1], [563, 0, 1]]
    }, 
    {
      "op": "Activation", 
      "name": "DBstage2_unit7_relu2", 
      "attrs": {"act_type": "relu"}, 
      "inputs": [[564, 0, 0]]
    }, 
    {
      "op": "ones_like", 
      "name": "ones_like27", 
      "inputs": [[565, 0, 0]]
    }, 
    {
      "op": "max", 
      "name": "max81", 
      "attrs": {"axis": "1"}, 
      "inputs": [[566, 0, 0]]
    }, 
    {
      "op": "argsort", 
      "name": "argsort54", 
      "attrs": {"axis": "2"}, 
      "inputs": [[567, 0, 0]]
    }, 
    {
      "op": "elemwise_add", 
      "name": "elemwise_add54", 
      "inputs": [[568, 0, 0], [567, 0, 0]]
    }, 
    {
      "op": "max", 
      "name": "max82", 
      "inputs": [[569, 0, 0]]
    }, 
    {
      "op": "broadcast_div", 
      "name": "broadcast_div54", 
      "inputs": [[569, 0, 0], [570, 0, 0]]
    }, 
    {
      "op": "argsort", 
      "name": "argsort55", 
      "attrs": {"axis": "1"}, 
      "inputs": [[567, 0, 0]]
    }, 
    {
      "op": "elemwise_add", 
      "name": "elemwise_add55", 
      "inputs": [[572, 0, 0], [567, 0, 0]]
    }, 
    {
      "op": "max", 
      "name": "max83", 
      "inputs": [[573, 0, 0]]
    }, 
    {
      "op": "broadcast_div", 
      "name": "broadcast_div55", 
      "inputs": [[573, 0, 0], [574, 0, 0]]
    }, 
    {
      "op": "stack", 
      "name": "stack27", 
      "attrs": {
        "axis": "1", 
        "num_args": "2"
      }, 
      "inputs": [[571, 0, 0], [575, 0, 0]]
    }, 
    {
      "op": "Concat", 
      "name": "concat27", 
      "attrs": {
        "dim": "1", 
        "num_args": "2"
      }, 
      "inputs": [[565, 0, 0], [576, 0, 0]]
    }, 
    {
      "op": "null", 
      "name": "DBstage2_unit7_conv2_weight", 
      "attrs": {
        "kernel": "(3, 3)", 
        "no_bias": "True", 
        "num_filter": "16", 
        "pad": "(1, 1)", 
        "stride": "(1, 1)", 
        "workspace": "512"
      }, 
      "inputs": []
    }, 
    {
      "op": "Convolution", 
      "name": "DBstage2_unit7_conv2", 
      "attrs": {
        "kernel": "(3, 3)", 
        "no_bias": "True", 
        "num_filter": "16", 
        "pad": "(1, 1)", 
        "stride": "(1, 1)", 
        "workspace": "512"
      }, 
      "inputs": [[577, 0, 0], [578, 0, 0]]
    }, 
    {
      "op": "Concat", 
      "name": "DBstage2_concat7", 
      "attrs": {"num_args": "2"}, 
      "inputs": [[539, 0, 0], [579, 0, 0]]
    }, 
    {
      "op": "null", 
      "name": "DBstage2_unit8_bn1_gamma", 
      "attrs": {
        "eps": "2e-05", 
        "fix_gamma": "False", 
        "momentum": "0.9"
      }, 
      "inputs": []
    }, 
    {
      "op": "null", 
      "name": "DBstage2_unit8_bn1_beta", 
      "attrs": {
        "eps": "2e-05", 
        "fix_gamma": "False", 
        "momentum": "0.9"
      }, 
      "inputs": []
    }, 
    {
      "op": "null", 
      "name": "DBstage2_unit8_bn1_moving_mean", 
      "attrs": {
        "__init__": "[\"zero\", {}]", 
        "eps": "2e-05", 
        "fix_gamma": "False", 
        "momentum": "0.9"
      }, 
      "inputs": []
    }, 
    {
      "op": "null", 
      "name": "DBstage2_unit8_bn1_moving_var", 
      "attrs": {
        "__init__": "[\"one\", {}]", 
        "eps": "2e-05", 
        "fix_gamma": "False", 
        "momentum": "0.9"
      }, 
      "inputs": []
    }, 
    {
      "op": "BatchNorm", 
      "name": "DBstage2_unit8_bn1", 
      "attrs": {
        "eps": "2e-05", 
        "fix_gamma": "False", 
        "momentum": "0.9"
      }, 
      "inputs": [[580, 0, 0], [581, 0, 0], [582, 0, 0], [583, 0, 1], [584, 0, 1]]
    }, 
    {
      "op": "Activation", 
      "name": "DBstage2_unit8_relu1", 
      "attrs": {"act_type": "relu"}, 
      "inputs": [[585, 0, 0]]
    }, 
    {
      "op": "ones_like", 
      "name": "ones_like28", 
      "inputs": [[586, 0, 0]]
    }, 
    {
      "op": "max", 
      "name": "max84", 
      "attrs": {"axis": "1"}, 
      "inputs": [[587, 0, 0]]
    }, 
    {
      "op": "argsort", 
      "name": "argsort56", 
      "attrs": {"axis": "2"}, 
      "inputs": [[588, 0, 0]]
    }, 
    {
      "op": "elemwise_add", 
      "name": "elemwise_add56", 
      "inputs": [[589, 0, 0], [588, 0, 0]]
    }, 
    {
      "op": "max", 
      "name": "max85", 
      "inputs": [[590, 0, 0]]
    }, 
    {
      "op": "broadcast_div", 
      "name": "broadcast_div56", 
      "inputs": [[590, 0, 0], [591, 0, 0]]
    }, 
    {
      "op": "argsort", 
      "name": "argsort57", 
      "attrs": {"axis": "1"}, 
      "inputs": [[588, 0, 0]]
    }, 
    {
      "op": "elemwise_add", 
      "name": "elemwise_add57", 
      "inputs": [[593, 0, 0], [588, 0, 0]]
    }, 
    {
      "op": "max", 
      "name": "max86", 
      "inputs": [[594, 0, 0]]
    }, 
    {
      "op": "broadcast_div", 
      "name": "broadcast_div57", 
      "inputs": [[594, 0, 0], [595, 0, 0]]
    }, 
    {
      "op": "stack", 
      "name": "stack28", 
      "attrs": {
        "axis": "1", 
        "num_args": "2"
      }, 
      "inputs": [[592, 0, 0], [596, 0, 0]]
    }, 
    {
      "op": "Concat", 
      "name": "concat28", 
      "attrs": {
        "dim": "1", 
        "num_args": "2"
      }, 
      "inputs": [[586, 0, 0], [597, 0, 0]]
    }, 
    {
      "op": "null", 
      "name": "DBstage2_unit8_conv1_weight", 
      "attrs": {
        "kernel": "(1, 1)", 
        "no_bias": "True", 
        "num_filter": "64", 
        "pad": "(0, 0)", 
        "stride": "(1, 1)", 
        "workspace": "512"
      }, 
      "inputs": []
    }, 
    {
      "op": "Convolution", 
      "name": "DBstage2_unit8_conv1", 
      "attrs": {
        "kernel": "(1, 1)", 
        "no_bias": "True", 
        "num_filter": "64", 
        "pad": "(0, 0)", 
        "stride": "(1, 1)", 
        "workspace": "512"
      }, 
      "inputs": [[598, 0, 0], [599, 0, 0]]
    }, 
    {
      "op": "null", 
      "name": "DBstage2_unit8_bn2_gamma", 
      "attrs": {
        "eps": "2e-05", 
        "fix_gamma": "False", 
        "momentum": "0.9"
      }, 
      "inputs": []
    }, 
    {
      "op": "null", 
      "name": "DBstage2_unit8_bn2_beta", 
      "attrs": {
        "eps": "2e-05", 
        "fix_gamma": "False", 
        "momentum": "0.9"
      }, 
      "inputs": []
    }, 
    {
      "op": "null", 
      "name": "DBstage2_unit8_bn2_moving_mean", 
      "attrs": {
        "__init__": "[\"zero\", {}]", 
        "eps": "2e-05", 
        "fix_gamma": "False", 
        "momentum": "0.9"
      }, 
      "inputs": []
    }, 
    {
      "op": "null", 
      "name": "DBstage2_unit8_bn2_moving_var", 
      "attrs": {
        "__init__": "[\"one\", {}]", 
        "eps": "2e-05", 
        "fix_gamma": "False", 
        "momentum": "0.9"
      }, 
      "inputs": []
    }, 
    {
      "op": "BatchNorm", 
      "name": "DBstage2_unit8_bn2", 
      "attrs": {
        "eps": "2e-05", 
        "fix_gamma": "False", 
        "momentum": "0.9"
      }, 
      "inputs": [[600, 0, 0], [601, 0, 0], [602, 0, 0], [603, 0, 1], [604, 0, 1]]
    }, 
    {
      "op": "Activation", 
      "name": "DBstage2_unit8_relu2", 
      "attrs": {"act_type": "relu"}, 
      "inputs": [[605, 0, 0]]
    }, 
    {
      "op": "ones_like", 
      "name": "ones_like29", 
      "inputs": [[606, 0, 0]]
    }, 
    {
      "op": "max", 
      "name": "max87", 
      "attrs": {"axis": "1"}, 
      "inputs": [[607, 0, 0]]
    }, 
    {
      "op": "argsort", 
      "name": "argsort58", 
      "attrs": {"axis": "2"}, 
      "inputs": [[608, 0, 0]]
    }, 
    {
      "op": "elemwise_add", 
      "name": "elemwise_add58", 
      "inputs": [[609, 0, 0], [608, 0, 0]]
    }, 
    {
      "op": "max", 
      "name": "max88", 
      "inputs": [[610, 0, 0]]
    }, 
    {
      "op": "broadcast_div", 
      "name": "broadcast_div58", 
      "inputs": [[610, 0, 0], [611, 0, 0]]
    }, 
    {
      "op": "argsort", 
      "name": "argsort59", 
      "attrs": {"axis": "1"}, 
      "inputs": [[608, 0, 0]]
    }, 
    {
      "op": "elemwise_add", 
      "name": "elemwise_add59", 
      "inputs": [[613, 0, 0], [608, 0, 0]]
    }, 
    {
      "op": "max", 
      "name": "max89", 
      "inputs": [[614, 0, 0]]
    }, 
    {
      "op": "broadcast_div", 
      "name": "broadcast_div59", 
      "inputs": [[614, 0, 0], [615, 0, 0]]
    }, 
    {
      "op": "stack", 
      "name": "stack29", 
      "attrs": {
        "axis": "1", 
        "num_args": "2"
      }, 
      "inputs": [[612, 0, 0], [616, 0, 0]]
    }, 
    {
      "op": "Concat", 
      "name": "concat29", 
      "attrs": {
        "dim": "1", 
        "num_args": "2"
      }, 
      "inputs": [[606, 0, 0], [617, 0, 0]]
    }, 
    {
      "op": "null", 
      "name": "DBstage2_unit8_conv2_weight", 
      "attrs": {
        "kernel": "(3, 3)", 
        "no_bias": "True", 
        "num_filter": "16", 
        "pad": "(1, 1)", 
        "stride": "(1, 1)", 
        "workspace": "512"
      }, 
      "inputs": []
    }, 
    {
      "op": "Convolution", 
      "name": "DBstage2_unit8_conv2", 
      "attrs": {
        "kernel": "(3, 3)", 
        "no_bias": "True", 
        "num_filter": "16", 
        "pad": "(1, 1)", 
        "stride": "(1, 1)", 
        "workspace": "512"
      }, 
      "inputs": [[618, 0, 0], [619, 0, 0]]
    }, 
    {
      "op": "Concat", 
      "name": "DBstage2_concat8", 
      "attrs": {"num_args": "2"}, 
      "inputs": [[580, 0, 0], [620, 0, 0]]
    }, 
    {
      "op": "null", 
      "name": "DBstage2_unit9_bn1_gamma", 
      "attrs": {
        "eps": "2e-05", 
        "fix_gamma": "False", 
        "momentum": "0.9"
      }, 
      "inputs": []
    }, 
    {
      "op": "null", 
      "name": "DBstage2_unit9_bn1_beta", 
      "attrs": {
        "eps": "2e-05", 
        "fix_gamma": "False", 
        "momentum": "0.9"
      }, 
      "inputs": []
    }, 
    {
      "op": "null", 
      "name": "DBstage2_unit9_bn1_moving_mean", 
      "attrs": {
        "__init__": "[\"zero\", {}]", 
        "eps": "2e-05", 
        "fix_gamma": "False", 
        "momentum": "0.9"
      }, 
      "inputs": []
    }, 
    {
      "op": "null", 
      "name": "DBstage2_unit9_bn1_moving_var", 
      "attrs": {
        "__init__": "[\"one\", {}]", 
        "eps": "2e-05", 
        "fix_gamma": "False", 
        "momentum": "0.9"
      }, 
      "inputs": []
    }, 
    {
      "op": "BatchNorm", 
      "name": "DBstage2_unit9_bn1", 
      "attrs": {
        "eps": "2e-05", 
        "fix_gamma": "False", 
        "momentum": "0.9"
      }, 
      "inputs": [[621, 0, 0], [622, 0, 0], [623, 0, 0], [624, 0, 1], [625, 0, 1]]
    }, 
    {
      "op": "Activation", 
      "name": "DBstage2_unit9_relu1", 
      "attrs": {"act_type": "relu"}, 
      "inputs": [[626, 0, 0]]
    }, 
    {
      "op": "ones_like", 
      "name": "ones_like30", 
      "inputs": [[627, 0, 0]]
    }, 
    {
      "op": "max", 
      "name": "max90", 
      "attrs": {"axis": "1"}, 
      "inputs": [[628, 0, 0]]
    }, 
    {
      "op": "argsort", 
      "name": "argsort60", 
      "attrs": {"axis": "2"}, 
      "inputs": [[629, 0, 0]]
    }, 
    {
      "op": "elemwise_add", 
      "name": "elemwise_add60", 
      "inputs": [[630, 0, 0], [629, 0, 0]]
    }, 
    {
      "op": "max", 
      "name": "max91", 
      "inputs": [[631, 0, 0]]
    }, 
    {
      "op": "broadcast_div", 
      "name": "broadcast_div60", 
      "inputs": [[631, 0, 0], [632, 0, 0]]
    }, 
    {
      "op": "argsort", 
      "name": "argsort61", 
      "attrs": {"axis": "1"}, 
      "inputs": [[629, 0, 0]]
    }, 
    {
      "op": "elemwise_add", 
      "name": "elemwise_add61", 
      "inputs": [[634, 0, 0], [629, 0, 0]]
    }, 
    {
      "op": "max", 
      "name": "max92", 
      "inputs": [[635, 0, 0]]
    }, 
    {
      "op": "broadcast_div", 
      "name": "broadcast_div61", 
      "inputs": [[635, 0, 0], [636, 0, 0]]
    }, 
    {
      "op": "stack", 
      "name": "stack30", 
      "attrs": {
        "axis": "1", 
        "num_args": "2"
      }, 
      "inputs": [[633, 0, 0], [637, 0, 0]]
    }, 
    {
      "op": "Concat", 
      "name": "concat30", 
      "attrs": {
        "dim": "1", 
        "num_args": "2"
      }, 
      "inputs": [[627, 0, 0], [638, 0, 0]]
    }, 
    {
      "op": "null", 
      "name": "DBstage2_unit9_conv1_weight", 
      "attrs": {
        "kernel": "(1, 1)", 
        "no_bias": "True", 
        "num_filter": "64", 
        "pad": "(0, 0)", 
        "stride": "(1, 1)", 
        "workspace": "512"
      }, 
      "inputs": []
    }, 
    {
      "op": "Convolution", 
      "name": "DBstage2_unit9_conv1", 
      "attrs": {
        "kernel": "(1, 1)", 
        "no_bias": "True", 
        "num_filter": "64", 
        "pad": "(0, 0)", 
        "stride": "(1, 1)", 
        "workspace": "512"
      }, 
      "inputs": [[639, 0, 0], [640, 0, 0]]
    }, 
    {
      "op": "null", 
      "name": "DBstage2_unit9_bn2_gamma", 
      "attrs": {
        "eps": "2e-05", 
        "fix_gamma": "False", 
        "momentum": "0.9"
      }, 
      "inputs": []
    }, 
    {
      "op": "null", 
      "name": "DBstage2_unit9_bn2_beta", 
      "attrs": {
        "eps": "2e-05", 
        "fix_gamma": "False", 
        "momentum": "0.9"
      }, 
      "inputs": []
    }, 
    {
      "op": "null", 
      "name": "DBstage2_unit9_bn2_moving_mean", 
      "attrs": {
        "__init__": "[\"zero\", {}]", 
        "eps": "2e-05", 
        "fix_gamma": "False", 
        "momentum": "0.9"
      }, 
      "inputs": []
    }, 
    {
      "op": "null", 
      "name": "DBstage2_unit9_bn2_moving_var", 
      "attrs": {
        "__init__": "[\"one\", {}]", 
        "eps": "2e-05", 
        "fix_gamma": "False", 
        "momentum": "0.9"
      }, 
      "inputs": []
    }, 
    {
      "op": "BatchNorm", 
      "name": "DBstage2_unit9_bn2", 
      "attrs": {
        "eps": "2e-05", 
        "fix_gamma": "False", 
        "momentum": "0.9"
      }, 
      "inputs": [[641, 0, 0], [642, 0, 0], [643, 0, 0], [644, 0, 1], [645, 0, 1]]
    }, 
    {
      "op": "Activation", 
      "name": "DBstage2_unit9_relu2", 
      "attrs": {"act_type": "relu"}, 
      "inputs": [[646, 0, 0]]
    }, 
    {
      "op": "ones_like", 
      "name": "ones_like31", 
      "inputs": [[647, 0, 0]]
    }, 
    {
      "op": "max", 
      "name": "max93", 
      "attrs": {"axis": "1"}, 
      "inputs": [[648, 0, 0]]
    }, 
    {
      "op": "argsort", 
      "name": "argsort62", 
      "attrs": {"axis": "2"}, 
      "inputs": [[649, 0, 0]]
    }, 
    {
      "op": "elemwise_add", 
      "name": "elemwise_add62", 
      "inputs": [[650, 0, 0], [649, 0, 0]]
    }, 
    {
      "op": "max", 
      "name": "max94", 
      "inputs": [[651, 0, 0]]
    }, 
    {
      "op": "broadcast_div", 
      "name": "broadcast_div62", 
      "inputs": [[651, 0, 0], [652, 0, 0]]
    }, 
    {
      "op": "argsort", 
      "name": "argsort63", 
      "attrs": {"axis": "1"}, 
      "inputs": [[649, 0, 0]]
    }, 
    {
      "op": "elemwise_add", 
      "name": "elemwise_add63", 
      "inputs": [[654, 0, 0], [649, 0, 0]]
    }, 
    {
      "op": "max", 
      "name": "max95", 
      "inputs": [[655, 0, 0]]
    }, 
    {
      "op": "broadcast_div", 
      "name": "broadcast_div63", 
      "inputs": [[655, 0, 0], [656, 0, 0]]
    }, 
    {
      "op": "stack", 
      "name": "stack31", 
      "attrs": {
        "axis": "1", 
        "num_args": "2"
      }, 
      "inputs": [[653, 0, 0], [657, 0, 0]]
    }, 
    {
      "op": "Concat", 
      "name": "concat31", 
      "attrs": {
        "dim": "1", 
        "num_args": "2"
      }, 
      "inputs": [[647, 0, 0], [658, 0, 0]]
    }, 
    {
      "op": "null", 
      "name": "DBstage2_unit9_conv2_weight", 
      "attrs": {
        "kernel": "(3, 3)", 
        "no_bias": "True", 
        "num_filter": "16", 
        "pad": "(1, 1)", 
        "stride": "(1, 1)", 
        "workspace": "512"
      }, 
      "inputs": []
    }, 
    {
      "op": "Convolution", 
      "name": "DBstage2_unit9_conv2", 
      "attrs": {
        "kernel": "(3, 3)", 
        "no_bias": "True", 
        "num_filter": "16", 
        "pad": "(1, 1)", 
        "stride": "(1, 1)", 
        "workspace": "512"
      }, 
      "inputs": [[659, 0, 0], [660, 0, 0]]
    }, 
    {
      "op": "Concat", 
      "name": "DBstage2_concat9", 
      "attrs": {"num_args": "2"}, 
      "inputs": [[621, 0, 0], [661, 0, 0]]
    }, 
    {
      "op": "null", 
      "name": "DBstage2_unit10_bn1_gamma", 
      "attrs": {
        "eps": "2e-05", 
        "fix_gamma": "False", 
        "momentum": "0.9"
      }, 
      "inputs": []
    }, 
    {
      "op": "null", 
      "name": "DBstage2_unit10_bn1_beta", 
      "attrs": {
        "eps": "2e-05", 
        "fix_gamma": "False", 
        "momentum": "0.9"
      }, 
      "inputs": []
    }, 
    {
      "op": "null", 
      "name": "DBstage2_unit10_bn1_moving_mean", 
      "attrs": {
        "__init__": "[\"zero\", {}]", 
        "eps": "2e-05", 
        "fix_gamma": "False", 
        "momentum": "0.9"
      }, 
      "inputs": []
    }, 
    {
      "op": "null", 
      "name": "DBstage2_unit10_bn1_moving_var", 
      "attrs": {
        "__init__": "[\"one\", {}]", 
        "eps": "2e-05", 
        "fix_gamma": "False", 
        "momentum": "0.9"
      }, 
      "inputs": []
    }, 
    {
      "op": "BatchNorm", 
      "name": "DBstage2_unit10_bn1", 
      "attrs": {
        "eps": "2e-05", 
        "fix_gamma": "False", 
        "momentum": "0.9"
      }, 
      "inputs": [[662, 0, 0], [663, 0, 0], [664, 0, 0], [665, 0, 1], [666, 0, 1]]
    }, 
    {
      "op": "Activation", 
      "name": "DBstage2_unit10_relu1", 
      "attrs": {"act_type": "relu"}, 
      "inputs": [[667, 0, 0]]
    }, 
    {
      "op": "ones_like", 
      "name": "ones_like32", 
      "inputs": [[668, 0, 0]]
    }, 
    {
      "op": "max", 
      "name": "max96", 
      "attrs": {"axis": "1"}, 
      "inputs": [[669, 0, 0]]
    }, 
    {
      "op": "argsort", 
      "name": "argsort64", 
      "attrs": {"axis": "2"}, 
      "inputs": [[670, 0, 0]]
    }, 
    {
      "op": "elemwise_add", 
      "name": "elemwise_add64", 
      "inputs": [[671, 0, 0], [670, 0, 0]]
    }, 
    {
      "op": "max", 
      "name": "max97", 
      "inputs": [[672, 0, 0]]
    }, 
    {
      "op": "broadcast_div", 
      "name": "broadcast_div64", 
      "inputs": [[672, 0, 0], [673, 0, 0]]
    }, 
    {
      "op": "argsort", 
      "name": "argsort65", 
      "attrs": {"axis": "1"}, 
      "inputs": [[670, 0, 0]]
    }, 
    {
      "op": "elemwise_add", 
      "name": "elemwise_add65", 
      "inputs": [[675, 0, 0], [670, 0, 0]]
    }, 
    {
      "op": "max", 
      "name": "max98", 
      "inputs": [[676, 0, 0]]
    }, 
    {
      "op": "broadcast_div", 
      "name": "broadcast_div65", 
      "inputs": [[676, 0, 0], [677, 0, 0]]
    }, 
    {
      "op": "stack", 
      "name": "stack32", 
      "attrs": {
        "axis": "1", 
        "num_args": "2"
      }, 
      "inputs": [[674, 0, 0], [678, 0, 0]]
    }, 
    {
      "op": "Concat", 
      "name": "concat32", 
      "attrs": {
        "dim": "1", 
        "num_args": "2"
      }, 
      "inputs": [[668, 0, 0], [679, 0, 0]]
    }, 
    {
      "op": "null", 
      "name": "DBstage2_unit10_conv1_weight", 
      "attrs": {
        "kernel": "(1, 1)", 
        "no_bias": "True", 
        "num_filter": "64", 
        "pad": "(0, 0)", 
        "stride": "(1, 1)", 
        "workspace": "512"
      }, 
      "inputs": []
    }, 
    {
      "op": "Convolution", 
      "name": "DBstage2_unit10_conv1", 
      "attrs": {
        "kernel": "(1, 1)", 
        "no_bias": "True", 
        "num_filter": "64", 
        "pad": "(0, 0)", 
        "stride": "(1, 1)", 
        "workspace": "512"
      }, 
      "inputs": [[680, 0, 0], [681, 0, 0]]
    }, 
    {
      "op": "null", 
      "name": "DBstage2_unit10_bn2_gamma", 
      "attrs": {
        "eps": "2e-05", 
        "fix_gamma": "False", 
        "momentum": "0.9"
      }, 
      "inputs": []
    }, 
    {
      "op": "null", 
      "name": "DBstage2_unit10_bn2_beta", 
      "attrs": {
        "eps": "2e-05", 
        "fix_gamma": "False", 
        "momentum": "0.9"
      }, 
      "inputs": []
    }, 
    {
      "op": "null", 
      "name": "DBstage2_unit10_bn2_moving_mean", 
      "attrs": {
        "__init__": "[\"zero\", {}]", 
        "eps": "2e-05", 
        "fix_gamma": "False", 
        "momentum": "0.9"
      }, 
      "inputs": []
    }, 
    {
      "op": "null", 
      "name": "DBstage2_unit10_bn2_moving_var", 
      "attrs": {
        "__init__": "[\"one\", {}]", 
        "eps": "2e-05", 
        "fix_gamma": "False", 
        "momentum": "0.9"
      }, 
      "inputs": []
    }, 
    {
      "op": "BatchNorm", 
      "name": "DBstage2_unit10_bn2", 
      "attrs": {
        "eps": "2e-05", 
        "fix_gamma": "False", 
        "momentum": "0.9"
      }, 
      "inputs": [[682, 0, 0], [683, 0, 0], [684, 0, 0], [685, 0, 1], [686, 0, 1]]
    }, 
    {
      "op": "Activation", 
      "name": "DBstage2_unit10_relu2", 
      "attrs": {"act_type": "relu"}, 
      "inputs": [[687, 0, 0]]
    }, 
    {
      "op": "ones_like", 
      "name": "ones_like33", 
      "inputs": [[688, 0, 0]]
    }, 
    {
      "op": "max", 
      "name": "max99", 
      "attrs": {"axis": "1"}, 
      "inputs": [[689, 0, 0]]
    }, 
    {
      "op": "argsort", 
      "name": "argsort66", 
      "attrs": {"axis": "2"}, 
      "inputs": [[690, 0, 0]]
    }, 
    {
      "op": "elemwise_add", 
      "name": "elemwise_add66", 
      "inputs": [[691, 0, 0], [690, 0, 0]]
    }, 
    {
      "op": "max", 
      "name": "max100", 
      "inputs": [[692, 0, 0]]
    }, 
    {
      "op": "broadcast_div", 
      "name": "broadcast_div66", 
      "inputs": [[692, 0, 0], [693, 0, 0]]
    }, 
    {
      "op": "argsort", 
      "name": "argsort67", 
      "attrs": {"axis": "1"}, 
      "inputs": [[690, 0, 0]]
    }, 
    {
      "op": "elemwise_add", 
      "name": "elemwise_add67", 
      "inputs": [[695, 0, 0], [690, 0, 0]]
    }, 
    {
      "op": "max", 
      "name": "max101", 
      "inputs": [[696, 0, 0]]
    }, 
    {
      "op": "broadcast_div", 
      "name": "broadcast_div67", 
      "inputs": [[696, 0, 0], [697, 0, 0]]
    }, 
    {
      "op": "stack", 
      "name": "stack33", 
      "attrs": {
        "axis": "1", 
        "num_args": "2"
      }, 
      "inputs": [[694, 0, 0], [698, 0, 0]]
    }, 
    {
      "op": "Concat", 
      "name": "concat33", 
      "attrs": {
        "dim": "1", 
        "num_args": "2"
      }, 
      "inputs": [[688, 0, 0], [699, 0, 0]]
    }, 
    {
      "op": "null", 
      "name": "DBstage2_unit10_conv2_weight", 
      "attrs": {
        "kernel": "(3, 3)", 
        "no_bias": "True", 
        "num_filter": "16", 
        "pad": "(1, 1)", 
        "stride": "(1, 1)", 
        "workspace": "512"
      }, 
      "inputs": []
    }, 
    {
      "op": "Convolution", 
      "name": "DBstage2_unit10_conv2", 
      "attrs": {
        "kernel": "(3, 3)", 
        "no_bias": "True", 
        "num_filter": "16", 
        "pad": "(1, 1)", 
        "stride": "(1, 1)", 
        "workspace": "512"
      }, 
      "inputs": [[700, 0, 0], [701, 0, 0]]
    }, 
    {
      "op": "Concat", 
      "name": "DBstage2_concat10", 
      "attrs": {"num_args": "2"}, 
      "inputs": [[662, 0, 0], [702, 0, 0]]
    }, 
    {
      "op": "null", 
      "name": "DBstage2_unit11_bn1_gamma", 
      "attrs": {
        "eps": "2e-05", 
        "fix_gamma": "False", 
        "momentum": "0.9"
      }, 
      "inputs": []
    }, 
    {
      "op": "null", 
      "name": "DBstage2_unit11_bn1_beta", 
      "attrs": {
        "eps": "2e-05", 
        "fix_gamma": "False", 
        "momentum": "0.9"
      }, 
      "inputs": []
    }, 
    {
      "op": "null", 
      "name": "DBstage2_unit11_bn1_moving_mean", 
      "attrs": {
        "__init__": "[\"zero\", {}]", 
        "eps": "2e-05", 
        "fix_gamma": "False", 
        "momentum": "0.9"
      }, 
      "inputs": []
    }, 
    {
      "op": "null", 
      "name": "DBstage2_unit11_bn1_moving_var", 
      "attrs": {
        "__init__": "[\"one\", {}]", 
        "eps": "2e-05", 
        "fix_gamma": "False", 
        "momentum": "0.9"
      }, 
      "inputs": []
    }, 
    {
      "op": "BatchNorm", 
      "name": "DBstage2_unit11_bn1", 
      "attrs": {
        "eps": "2e-05", 
        "fix_gamma": "False", 
        "momentum": "0.9"
      }, 
      "inputs": [[703, 0, 0], [704, 0, 0], [705, 0, 0], [706, 0, 1], [707, 0, 1]]
    }, 
    {
      "op": "Activation", 
      "name": "DBstage2_unit11_relu1", 
      "attrs": {"act_type": "relu"}, 
      "inputs": [[708, 0, 0]]
    }, 
    {
      "op": "ones_like", 
      "name": "ones_like34", 
      "inputs": [[709, 0, 0]]
    }, 
    {
      "op": "max", 
      "name": "max102", 
      "attrs": {"axis": "1"}, 
      "inputs": [[710, 0, 0]]
    }, 
    {
      "op": "argsort", 
      "name": "argsort68", 
      "attrs": {"axis": "2"}, 
      "inputs": [[711, 0, 0]]
    }, 
    {
      "op": "elemwise_add", 
      "name": "elemwise_add68", 
      "inputs": [[712, 0, 0], [711, 0, 0]]
    }, 
    {
      "op": "max", 
      "name": "max103", 
      "inputs": [[713, 0, 0]]
    }, 
    {
      "op": "broadcast_div", 
      "name": "broadcast_div68", 
      "inputs": [[713, 0, 0], [714, 0, 0]]
    }, 
    {
      "op": "argsort", 
      "name": "argsort69", 
      "attrs": {"axis": "1"}, 
      "inputs": [[711, 0, 0]]
    }, 
    {
      "op": "elemwise_add", 
      "name": "elemwise_add69", 
      "inputs": [[716, 0, 0], [711, 0, 0]]
    }, 
    {
      "op": "max", 
      "name": "max104", 
      "inputs": [[717, 0, 0]]
    }, 
    {
      "op": "broadcast_div", 
      "name": "broadcast_div69", 
      "inputs": [[717, 0, 0], [718, 0, 0]]
    }, 
    {
      "op": "stack", 
      "name": "stack34", 
      "attrs": {
        "axis": "1", 
        "num_args": "2"
      }, 
      "inputs": [[715, 0, 0], [719, 0, 0]]
    }, 
    {
      "op": "Concat", 
      "name": "concat34", 
      "attrs": {
        "dim": "1", 
        "num_args": "2"
      }, 
      "inputs": [[709, 0, 0], [720, 0, 0]]
    }, 
    {
      "op": "null", 
      "name": "DBstage2_unit11_conv1_weight", 
      "attrs": {
        "kernel": "(1, 1)", 
        "no_bias": "True", 
        "num_filter": "64", 
        "pad": "(0, 0)", 
        "stride": "(1, 1)", 
        "workspace": "512"
      }, 
      "inputs": []
    }, 
    {
      "op": "Convolution", 
      "name": "DBstage2_unit11_conv1", 
      "attrs": {
        "kernel": "(1, 1)", 
        "no_bias": "True", 
        "num_filter": "64", 
        "pad": "(0, 0)", 
        "stride": "(1, 1)", 
        "workspace": "512"
      }, 
      "inputs": [[721, 0, 0], [722, 0, 0]]
    }, 
    {
      "op": "null", 
      "name": "DBstage2_unit11_bn2_gamma", 
      "attrs": {
        "eps": "2e-05", 
        "fix_gamma": "False", 
        "momentum": "0.9"
      }, 
      "inputs": []
    }, 
    {
      "op": "null", 
      "name": "DBstage2_unit11_bn2_beta", 
      "attrs": {
        "eps": "2e-05", 
        "fix_gamma": "False", 
        "momentum": "0.9"
      }, 
      "inputs": []
    }, 
    {
      "op": "null", 
      "name": "DBstage2_unit11_bn2_moving_mean", 
      "attrs": {
        "__init__": "[\"zero\", {}]", 
        "eps": "2e-05", 
        "fix_gamma": "False", 
        "momentum": "0.9"
      }, 
      "inputs": []
    }, 
    {
      "op": "null", 
      "name": "DBstage2_unit11_bn2_moving_var", 
      "attrs": {
        "__init__": "[\"one\", {}]", 
        "eps": "2e-05", 
        "fix_gamma": "False", 
        "momentum": "0.9"
      }, 
      "inputs": []
    }, 
    {
      "op": "BatchNorm", 
      "name": "DBstage2_unit11_bn2", 
      "attrs": {
        "eps": "2e-05", 
        "fix_gamma": "False", 
        "momentum": "0.9"
      }, 
      "inputs": [[723, 0, 0], [724, 0, 0], [725, 0, 0], [726, 0, 1], [727, 0, 1]]
    }, 
    {
      "op": "Activation", 
      "name": "DBstage2_unit11_relu2", 
      "attrs": {"act_type": "relu"}, 
      "inputs": [[728, 0, 0]]
    }, 
    {
      "op": "ones_like", 
      "name": "ones_like35", 
      "inputs": [[729, 0, 0]]
    }, 
    {
      "op": "max", 
      "name": "max105", 
      "attrs": {"axis": "1"}, 
      "inputs": [[730, 0, 0]]
    }, 
    {
      "op": "argsort", 
      "name": "argsort70", 
      "attrs": {"axis": "2"}, 
      "inputs": [[731, 0, 0]]
    }, 
    {
      "op": "elemwise_add", 
      "name": "elemwise_add70", 
      "inputs": [[732, 0, 0], [731, 0, 0]]
    }, 
    {
      "op": "max", 
      "name": "max106", 
      "inputs": [[733, 0, 0]]
    }, 
    {
      "op": "broadcast_div", 
      "name": "broadcast_div70", 
      "inputs": [[733, 0, 0], [734, 0, 0]]
    }, 
    {
      "op": "argsort", 
      "name": "argsort71", 
      "attrs": {"axis": "1"}, 
      "inputs": [[731, 0, 0]]
    }, 
    {
      "op": "elemwise_add", 
      "name": "elemwise_add71", 
      "inputs": [[736, 0, 0], [731, 0, 0]]
    }, 
    {
      "op": "max", 
      "name": "max107", 
      "inputs": [[737, 0, 0]]
    }, 
    {
      "op": "broadcast_div", 
      "name": "broadcast_div71", 
      "inputs": [[737, 0, 0], [738, 0, 0]]
    }, 
    {
      "op": "stack", 
      "name": "stack35", 
      "attrs": {
        "axis": "1", 
        "num_args": "2"
      }, 
      "inputs": [[735, 0, 0], [739, 0, 0]]
    }, 
    {
      "op": "Concat", 
      "name": "concat35", 
      "attrs": {
        "dim": "1", 
        "num_args": "2"
      }, 
      "inputs": [[729, 0, 0], [740, 0, 0]]
    }, 
    {
      "op": "null", 
      "name": "DBstage2_unit11_conv2_weight", 
      "attrs": {
        "kernel": "(3, 3)", 
        "no_bias": "True", 
        "num_filter": "16", 
        "pad": "(1, 1)", 
        "stride": "(1, 1)", 
        "workspace": "512"
      }, 
      "inputs": []
    }, 
    {
      "op": "Convolution", 
      "name": "DBstage2_unit11_conv2", 
      "attrs": {
        "kernel": "(3, 3)", 
        "no_bias": "True", 
        "num_filter": "16", 
        "pad": "(1, 1)", 
        "stride": "(1, 1)", 
        "workspace": "512"
      }, 
      "inputs": [[741, 0, 0], [742, 0, 0]]
    }, 
    {
      "op": "Concat", 
      "name": "DBstage2_concat11", 
      "attrs": {"num_args": "2"}, 
      "inputs": [[703, 0, 0], [743, 0, 0]]
    }, 
    {
      "op": "null", 
      "name": "DBstage2_unit12_bn1_gamma", 
      "attrs": {
        "eps": "2e-05", 
        "fix_gamma": "False", 
        "momentum": "0.9"
      }, 
      "inputs": []
    }, 
    {
      "op": "null", 
      "name": "DBstage2_unit12_bn1_beta", 
      "attrs": {
        "eps": "2e-05", 
        "fix_gamma": "False", 
        "momentum": "0.9"
      }, 
      "inputs": []
    }, 
    {
      "op": "null", 
      "name": "DBstage2_unit12_bn1_moving_mean", 
      "attrs": {
        "__init__": "[\"zero\", {}]", 
        "eps": "2e-05", 
        "fix_gamma": "False", 
        "momentum": "0.9"
      }, 
      "inputs": []
    }, 
    {
      "op": "null", 
      "name": "DBstage2_unit12_bn1_moving_var", 
      "attrs": {
        "__init__": "[\"one\", {}]", 
        "eps": "2e-05", 
        "fix_gamma": "False", 
        "momentum": "0.9"
      }, 
      "inputs": []
    }, 
    {
      "op": "BatchNorm", 
      "name": "DBstage2_unit12_bn1", 
      "attrs": {
        "eps": "2e-05", 
        "fix_gamma": "False", 
        "momentum": "0.9"
      }, 
      "inputs": [[744, 0, 0], [745, 0, 0], [746, 0, 0], [747, 0, 1], [748, 0, 1]]
    }, 
    {
      "op": "Activation", 
      "name": "DBstage2_unit12_relu1", 
      "attrs": {"act_type": "relu"}, 
      "inputs": [[749, 0, 0]]
    }, 
    {
      "op": "ones_like", 
      "name": "ones_like36", 
      "inputs": [[750, 0, 0]]
    }, 
    {
      "op": "max", 
      "name": "max108", 
      "attrs": {"axis": "1"}, 
      "inputs": [[751, 0, 0]]
    }, 
    {
      "op": "argsort", 
      "name": "argsort72", 
      "attrs": {"axis": "2"}, 
      "inputs": [[752, 0, 0]]
    }, 
    {
      "op": "elemwise_add", 
      "name": "elemwise_add72", 
      "inputs": [[753, 0, 0], [752, 0, 0]]
    }, 
    {
      "op": "max", 
      "name": "max109", 
      "inputs": [[754, 0, 0]]
    }, 
    {
      "op": "broadcast_div", 
      "name": "broadcast_div72", 
      "inputs": [[754, 0, 0], [755, 0, 0]]
    }, 
    {
      "op": "argsort", 
      "name": "argsort73", 
      "attrs": {"axis": "1"}, 
      "inputs": [[752, 0, 0]]
    }, 
    {
      "op": "elemwise_add", 
      "name": "elemwise_add73", 
      "inputs": [[757, 0, 0], [752, 0, 0]]
    }, 
    {
      "op": "max", 
      "name": "max110", 
      "inputs": [[758, 0, 0]]
    }, 
    {
      "op": "broadcast_div", 
      "name": "broadcast_div73", 
      "inputs": [[758, 0, 0], [759, 0, 0]]
    }, 
    {
      "op": "stack", 
      "name": "stack36", 
      "attrs": {
        "axis": "1", 
        "num_args": "2"
      }, 
      "inputs": [[756, 0, 0], [760, 0, 0]]
    }, 
    {
      "op": "Concat", 
      "name": "concat36", 
      "attrs": {
        "dim": "1", 
        "num_args": "2"
      }, 
      "inputs": [[750, 0, 0], [761, 0, 0]]
    }, 
    {
      "op": "null", 
      "name": "DBstage2_unit12_conv1_weight", 
      "attrs": {
        "kernel": "(1, 1)", 
        "no_bias": "True", 
        "num_filter": "64", 
        "pad": "(0, 0)", 
        "stride": "(1, 1)", 
        "workspace": "512"
      }, 
      "inputs": []
    }, 
    {
      "op": "Convolution", 
      "name": "DBstage2_unit12_conv1", 
      "attrs": {
        "kernel": "(1, 1)", 
        "no_bias": "True", 
        "num_filter": "64", 
        "pad": "(0, 0)", 
        "stride": "(1, 1)", 
        "workspace": "512"
      }, 
      "inputs": [[762, 0, 0], [763, 0, 0]]
    }, 
    {
      "op": "null", 
      "name": "DBstage2_unit12_bn2_gamma", 
      "attrs": {
        "eps": "2e-05", 
        "fix_gamma": "False", 
        "momentum": "0.9"
      }, 
      "inputs": []
    }, 
    {
      "op": "null", 
      "name": "DBstage2_unit12_bn2_beta", 
      "attrs": {
        "eps": "2e-05", 
        "fix_gamma": "False", 
        "momentum": "0.9"
      }, 
      "inputs": []
    }, 
    {
      "op": "null", 
      "name": "DBstage2_unit12_bn2_moving_mean", 
      "attrs": {
        "__init__": "[\"zero\", {}]", 
        "eps": "2e-05", 
        "fix_gamma": "False", 
        "momentum": "0.9"
      }, 
      "inputs": []
    }, 
    {
      "op": "null", 
      "name": "DBstage2_unit12_bn2_moving_var", 
      "attrs": {
        "__init__": "[\"one\", {}]", 
        "eps": "2e-05", 
        "fix_gamma": "False", 
        "momentum": "0.9"
      }, 
      "inputs": []
    }, 
    {
      "op": "BatchNorm", 
      "name": "DBstage2_unit12_bn2", 
      "attrs": {
        "eps": "2e-05", 
        "fix_gamma": "False", 
        "momentum": "0.9"
      }, 
      "inputs": [[764, 0, 0], [765, 0, 0], [766, 0, 0], [767, 0, 1], [768, 0, 1]]
    }, 
    {
      "op": "Activation", 
      "name": "DBstage2_unit12_relu2", 
      "attrs": {"act_type": "relu"}, 
      "inputs": [[769, 0, 0]]
    }, 
    {
      "op": "ones_like", 
      "name": "ones_like37", 
      "inputs": [[770, 0, 0]]
    }, 
    {
      "op": "max", 
      "name": "max111", 
      "attrs": {"axis": "1"}, 
      "inputs": [[771, 0, 0]]
    }, 
    {
      "op": "argsort", 
      "name": "argsort74", 
      "attrs": {"axis": "2"}, 
      "inputs": [[772, 0, 0]]
    }, 
    {
      "op": "elemwise_add", 
      "name": "elemwise_add74", 
      "inputs": [[773, 0, 0], [772, 0, 0]]
    }, 
    {
      "op": "max", 
      "name": "max112", 
      "inputs": [[774, 0, 0]]
    }, 
    {
      "op": "broadcast_div", 
      "name": "broadcast_div74", 
      "inputs": [[774, 0, 0], [775, 0, 0]]
    }, 
    {
      "op": "argsort", 
      "name": "argsort75", 
      "attrs": {"axis": "1"}, 
      "inputs": [[772, 0, 0]]
    }, 
    {
      "op": "elemwise_add", 
      "name": "elemwise_add75", 
      "inputs": [[777, 0, 0], [772, 0, 0]]
    }, 
    {
      "op": "max", 
      "name": "max113", 
      "inputs": [[778, 0, 0]]
    }, 
    {
      "op": "broadcast_div", 
      "name": "broadcast_div75", 
      "inputs": [[778, 0, 0], [779, 0, 0]]
    }, 
    {
      "op": "stack", 
      "name": "stack37", 
      "attrs": {
        "axis": "1", 
        "num_args": "2"
      }, 
      "inputs": [[776, 0, 0], [780, 0, 0]]
    }, 
    {
      "op": "Concat", 
      "name": "concat37", 
      "attrs": {
        "dim": "1", 
        "num_args": "2"
      }, 
      "inputs": [[770, 0, 0], [781, 0, 0]]
    }, 
    {
      "op": "null", 
      "name": "DBstage2_unit12_conv2_weight", 
      "attrs": {
        "kernel": "(3, 3)", 
        "no_bias": "True", 
        "num_filter": "16", 
        "pad": "(1, 1)", 
        "stride": "(1, 1)", 
        "workspace": "512"
      }, 
      "inputs": []
    }, 
    {
      "op": "Convolution", 
      "name": "DBstage2_unit12_conv2", 
      "attrs": {
        "kernel": "(3, 3)", 
        "no_bias": "True", 
        "num_filter": "16", 
        "pad": "(1, 1)", 
        "stride": "(1, 1)", 
        "workspace": "512"
      }, 
      "inputs": [[782, 0, 0], [783, 0, 0]]
    }, 
    {
      "op": "Concat", 
      "name": "DBstage2_concat12", 
      "attrs": {"num_args": "2"}, 
      "inputs": [[744, 0, 0], [784, 0, 0]]
    }, 
    {
      "op": "null", 
      "name": "DBstage2_concat12_cls_pred_conv_weight", 
      "attrs": {
        "kernel": "(3, 3)", 
        "num_filter": "32", 
        "pad": "(1, 1)", 
        "stride": "(1, 1)"
      }, 
      "inputs": []
    }, 
    {
      "op": "null", 
      "name": "DBstage2_concat12_cls_pred_conv_bias", 
      "attrs": {
        "__init__": "[\"constant\", {\"value\": 0.0}]", 
        "__lr_mult__": "2.0"
      }, 
      "inputs": []
    }, 
    {
      "op": "Convolution", 
      "name": "DBstage2_concat12_cls_pred_conv", 
      "attrs": {
        "kernel": "(3, 3)", 
        "num_filter": "32", 
        "pad": "(1, 1)", 
        "stride": "(1, 1)"
      }, 
      "inputs": [[785, 0, 0], [786, 0, 0], [787, 0, 0]]
    }, 
    {
      "op": "transpose", 
      "name": "transpose1", 
      "attrs": {"axes": "(0, 2, 3, 1)"}, 
      "inputs": [[788, 0, 0]]
    }, 
    {
      "op": "Flatten", 
      "name": "flatten2", 
      "inputs": [[789, 0, 0]]
    }, 
    {
      "op": "null", 
      "name": "TBstage2_bn1_gamma", 
      "attrs": {
        "eps": "2e-05", 
        "fix_gamma": "False", 
        "momentum": "0.9"
      }, 
      "inputs": []
    }, 
    {
      "op": "null", 
      "name": "TBstage2_bn1_beta", 
      "attrs": {
        "eps": "2e-05", 
        "fix_gamma": "False", 
        "momentum": "0.9"
      }, 
      "inputs": []
    }, 
    {
      "op": "null", 
      "name": "TBstage2_bn1_moving_mean", 
      "attrs": {
        "__init__": "[\"zero\", {}]", 
        "eps": "2e-05", 
        "fix_gamma": "False", 
        "momentum": "0.9"
      }, 
      "inputs": []
    }, 
    {
      "op": "null", 
      "name": "TBstage2_bn1_moving_var", 
      "attrs": {
        "__init__": "[\"one\", {}]", 
        "eps": "2e-05", 
        "fix_gamma": "False", 
        "momentum": "0.9"
      }, 
      "inputs": []
    }, 
    {
      "op": "BatchNorm", 
      "name": "TBstage2_bn1", 
      "attrs": {
        "eps": "2e-05", 
        "fix_gamma": "False", 
        "momentum": "0.9"
      }, 
      "inputs": [[785, 0, 0], [791, 0, 0], [792, 0, 0], [793, 0, 1], [794, 0, 1]]
    }, 
    {
      "op": "Activation", 
      "name": "TBstage2_relu1", 
      "attrs": {"act_type": "relu"}, 
      "inputs": [[795, 0, 0]]
    }, 
    {
      "op": "ones_like", 
      "name": "ones_like38", 
      "inputs": [[796, 0, 0]]
    }, 
    {
      "op": "max", 
      "name": "max114", 
      "attrs": {"axis": "1"}, 
      "inputs": [[797, 0, 0]]
    }, 
    {
      "op": "argsort", 
      "name": "argsort76", 
      "attrs": {"axis": "2"}, 
      "inputs": [[798, 0, 0]]
    }, 
    {
      "op": "elemwise_add", 
      "name": "elemwise_add76", 
      "inputs": [[799, 0, 0], [798, 0, 0]]
    }, 
    {
      "op": "max", 
      "name": "max115", 
      "inputs": [[800, 0, 0]]
    }, 
    {
      "op": "broadcast_div", 
      "name": "broadcast_div76", 
      "inputs": [[800, 0, 0], [801, 0, 0]]
    }, 
    {
      "op": "argsort", 
      "name": "argsort77", 
      "attrs": {"axis": "1"}, 
      "inputs": [[798, 0, 0]]
    }, 
    {
      "op": "elemwise_add", 
      "name": "elemwise_add77", 
      "inputs": [[803, 0, 0], [798, 0, 0]]
    }, 
    {
      "op": "max", 
      "name": "max116", 
      "inputs": [[804, 0, 0]]
    }, 
    {
      "op": "broadcast_div", 
      "name": "broadcast_div77", 
      "inputs": [[804, 0, 0], [805, 0, 0]]
    }, 
    {
      "op": "stack", 
      "name": "stack38", 
      "attrs": {
        "axis": "1", 
        "num_args": "2"
      }, 
      "inputs": [[802, 0, 0], [806, 0, 0]]
    }, 
    {
      "op": "Concat", 
      "name": "concat38", 
      "attrs": {
        "dim": "1", 
        "num_args": "2"
      }, 
      "inputs": [[796, 0, 0], [807, 0, 0]]
    }, 
    {
      "op": "null", 
      "name": "TBstage2_conv1_weight", 
      "attrs": {
        "kernel": "(1, 1)", 
        "no_bias": "True", 
        "num_filter": "128", 
        "pad": "(0, 0)", 
        "stride": "(1, 1)", 
        "workspace": "512"
      }, 
      "inputs": []
    }, 
    {
      "op": "Convolution", 
      "name": "TBstage2_conv1", 
      "attrs": {
        "kernel": "(1, 1)", 
        "no_bias": "True", 
        "num_filter": "128", 
        "pad": "(0, 0)", 
        "stride": "(1, 1)", 
        "workspace": "512"
      }, 
      "inputs": [[808, 0, 0], [809, 0, 0]]
    }, 
    {
      "op": "Pooling", 
      "name": "TBstage2_pool2", 
      "attrs": {
        "global_pool": "False", 
        "kernel": "(2, 2)", 
        "pool_type": "avg", 
        "stride": "(2, 2)"
      }, 
      "inputs": [[810, 0, 0]]
    }, 
    {
      "op": "null", 
      "name": "DBstage3_unit1_bn1_gamma", 
      "attrs": {
        "eps": "2e-05", 
        "fix_gamma": "False", 
        "momentum": "0.9"
      }, 
      "inputs": []
    }, 
    {
      "op": "null", 
      "name": "DBstage3_unit1_bn1_beta", 
      "attrs": {
        "eps": "2e-05", 
        "fix_gamma": "False", 
        "momentum": "0.9"
      }, 
      "inputs": []
    }, 
    {
      "op": "null", 
      "name": "DBstage3_unit1_bn1_moving_mean", 
      "attrs": {
        "__init__": "[\"zero\", {}]", 
        "eps": "2e-05", 
        "fix_gamma": "False", 
        "momentum": "0.9"
      }, 
      "inputs": []
    }, 
    {
      "op": "null", 
      "name": "DBstage3_unit1_bn1_moving_var", 
      "attrs": {
        "__init__": "[\"one\", {}]", 
        "eps": "2e-05", 
        "fix_gamma": "False", 
        "momentum": "0.9"
      }, 
      "inputs": []
    }, 
    {
      "op": "BatchNorm", 
      "name": "DBstage3_unit1_bn1", 
      "attrs": {
        "eps": "2e-05", 
        "fix_gamma": "False", 
        "momentum": "0.9"
      }, 
      "inputs": [[811, 0, 0], [812, 0, 0], [813, 0, 0], [814, 0, 1], [815, 0, 1]]
    }, 
    {
      "op": "Activation", 
      "name": "DBstage3_unit1_relu1", 
      "attrs": {"act_type": "relu"}, 
      "inputs": [[816, 0, 0]]
    }, 
    {
      "op": "ones_like", 
      "name": "ones_like39", 
      "inputs": [[817, 0, 0]]
    }, 
    {
      "op": "max", 
      "name": "max117", 
      "attrs": {"axis": "1"}, 
      "inputs": [[818, 0, 0]]
    }, 
    {
      "op": "argsort", 
      "name": "argsort78", 
      "attrs": {"axis": "2"}, 
      "inputs": [[819, 0, 0]]
    }, 
    {
      "op": "elemwise_add", 
      "name": "elemwise_add78", 
      "inputs": [[820, 0, 0], [819, 0, 0]]
    }, 
    {
      "op": "max", 
      "name": "max118", 
      "inputs": [[821, 0, 0]]
    }, 
    {
      "op": "broadcast_div", 
      "name": "broadcast_div78", 
      "inputs": [[821, 0, 0], [822, 0, 0]]
    }, 
    {
      "op": "argsort", 
      "name": "argsort79", 
      "attrs": {"axis": "1"}, 
      "inputs": [[819, 0, 0]]
    }, 
    {
      "op": "elemwise_add", 
      "name": "elemwise_add79", 
      "inputs": [[824, 0, 0], [819, 0, 0]]
    }, 
    {
      "op": "max", 
      "name": "max119", 
      "inputs": [[825, 0, 0]]
    }, 
    {
      "op": "broadcast_div", 
      "name": "broadcast_div79", 
      "inputs": [[825, 0, 0], [826, 0, 0]]
    }, 
    {
      "op": "stack", 
      "name": "stack39", 
      "attrs": {
        "axis": "1", 
        "num_args": "2"
      }, 
      "inputs": [[823, 0, 0], [827, 0, 0]]
    }, 
    {
      "op": "Concat", 
      "name": "concat39", 
      "attrs": {
        "dim": "1", 
        "num_args": "2"
      }, 
      "inputs": [[817, 0, 0], [828, 0, 0]]
    }, 
    {
      "op": "null", 
      "name": "DBstage3_unit1_conv1_weight", 
      "attrs": {
        "kernel": "(1, 1)", 
        "no_bias": "True", 
        "num_filter": "64", 
        "pad": "(0, 0)", 
        "stride": "(1, 1)", 
        "workspace": "512"
      }, 
      "inputs": []
    }, 
    {
      "op": "Convolution", 
      "name": "DBstage3_unit1_conv1", 
      "attrs": {
        "kernel": "(1, 1)", 
        "no_bias": "True", 
        "num_filter": "64", 
        "pad": "(0, 0)", 
        "stride": "(1, 1)", 
        "workspace": "512"
      }, 
      "inputs": [[829, 0, 0], [830, 0, 0]]
    }, 
    {
      "op": "null", 
      "name": "DBstage3_unit1_bn2_gamma", 
      "attrs": {
        "eps": "2e-05", 
        "fix_gamma": "False", 
        "momentum": "0.9"
      }, 
      "inputs": []
    }, 
    {
      "op": "null", 
      "name": "DBstage3_unit1_bn2_beta", 
      "attrs": {
        "eps": "2e-05", 
        "fix_gamma": "False", 
        "momentum": "0.9"
      }, 
      "inputs": []
    }, 
    {
      "op": "null", 
      "name": "DBstage3_unit1_bn2_moving_mean", 
      "attrs": {
        "__init__": "[\"zero\", {}]", 
        "eps": "2e-05", 
        "fix_gamma": "False", 
        "momentum": "0.9"
      }, 
      "inputs": []
    }, 
    {
      "op": "null", 
      "name": "DBstage3_unit1_bn2_moving_var", 
      "attrs": {
        "__init__": "[\"one\", {}]", 
        "eps": "2e-05", 
        "fix_gamma": "False", 
        "momentum": "0.9"
      }, 
      "inputs": []
    }, 
    {
      "op": "BatchNorm", 
      "name": "DBstage3_unit1_bn2", 
      "attrs": {
        "eps": "2e-05", 
        "fix_gamma": "False", 
        "momentum": "0.9"
      }, 
      "inputs": [[831, 0, 0], [832, 0, 0], [833, 0, 0], [834, 0, 1], [835, 0, 1]]
    }, 
    {
      "op": "Activation", 
      "name": "DBstage3_unit1_relu2", 
      "attrs": {"act_type": "relu"}, 
      "inputs": [[836, 0, 0]]
    }, 
    {
      "op": "ones_like", 
      "name": "ones_like40", 
      "inputs": [[837, 0, 0]]
    }, 
    {
      "op": "max", 
      "name": "max120", 
      "attrs": {"axis": "1"}, 
      "inputs": [[838, 0, 0]]
    }, 
    {
      "op": "argsort", 
      "name": "argsort80", 
      "attrs": {"axis": "2"}, 
      "inputs": [[839, 0, 0]]
    }, 
    {
      "op": "elemwise_add", 
      "name": "elemwise_add80", 
      "inputs": [[840, 0, 0], [839, 0, 0]]
    }, 
    {
      "op": "max", 
      "name": "max121", 
      "inputs": [[841, 0, 0]]
    }, 
    {
      "op": "broadcast_div", 
      "name": "broadcast_div80", 
      "inputs": [[841, 0, 0], [842, 0, 0]]
    }, 
    {
      "op": "argsort", 
      "name": "argsort81", 
      "attrs": {"axis": "1"}, 
      "inputs": [[839, 0, 0]]
    }, 
    {
      "op": "elemwise_add", 
      "name": "elemwise_add81", 
      "inputs": [[844, 0, 0], [839, 0, 0]]
    }, 
    {
      "op": "max", 
      "name": "max122", 
      "inputs": [[845, 0, 0]]
    }, 
    {
      "op": "broadcast_div", 
      "name": "broadcast_div81", 
      "inputs": [[845, 0, 0], [846, 0, 0]]
    }, 
    {
      "op": "stack", 
      "name": "stack40", 
      "attrs": {
        "axis": "1", 
        "num_args": "2"
      }, 
      "inputs": [[843, 0, 0], [847, 0, 0]]
    }, 
    {
      "op": "Concat", 
      "name": "concat40", 
      "attrs": {
        "dim": "1", 
        "num_args": "2"
      }, 
      "inputs": [[837, 0, 0], [848, 0, 0]]
    }, 
    {
      "op": "null", 
      "name": "DBstage3_unit1_conv2_weight", 
      "attrs": {
        "kernel": "(3, 3)", 
        "no_bias": "True", 
        "num_filter": "16", 
        "pad": "(1, 1)", 
        "stride": "(1, 1)", 
        "workspace": "512"
      }, 
      "inputs": []
    }, 
    {
      "op": "Convolution", 
      "name": "DBstage3_unit1_conv2", 
      "attrs": {
        "kernel": "(3, 3)", 
        "no_bias": "True", 
        "num_filter": "16", 
        "pad": "(1, 1)", 
        "stride": "(1, 1)", 
        "workspace": "512"
      }, 
      "inputs": [[849, 0, 0], [850, 0, 0]]
    }, 
    {
      "op": "Concat", 
      "name": "DBstage3_concat1", 
      "attrs": {"num_args": "2"}, 
      "inputs": [[811, 0, 0], [851, 0, 0]]
    }, 
    {
      "op": "null", 
      "name": "DBstage3_unit2_bn1_gamma", 
      "attrs": {
        "eps": "2e-05", 
        "fix_gamma": "False", 
        "momentum": "0.9"
      }, 
      "inputs": []
    }, 
    {
      "op": "null", 
      "name": "DBstage3_unit2_bn1_beta", 
      "attrs": {
        "eps": "2e-05", 
        "fix_gamma": "False", 
        "momentum": "0.9"
      }, 
      "inputs": []
    }, 
    {
      "op": "null", 
      "name": "DBstage3_unit2_bn1_moving_mean", 
      "attrs": {
        "__init__": "[\"zero\", {}]", 
        "eps": "2e-05", 
        "fix_gamma": "False", 
        "momentum": "0.9"
      }, 
      "inputs": []
    }, 
    {
      "op": "null", 
      "name": "DBstage3_unit2_bn1_moving_var", 
      "attrs": {
        "__init__": "[\"one\", {}]", 
        "eps": "2e-05", 
        "fix_gamma": "False", 
        "momentum": "0.9"
      }, 
      "inputs": []
    }, 
    {
      "op": "BatchNorm", 
      "name": "DBstage3_unit2_bn1", 
      "attrs": {
        "eps": "2e-05", 
        "fix_gamma": "False", 
        "momentum": "0.9"
      }, 
      "inputs": [[852, 0, 0], [853, 0, 0], [854, 0, 0], [855, 0, 1], [856, 0, 1]]
    }, 
    {
      "op": "Activation", 
      "name": "DBstage3_unit2_relu1", 
      "attrs": {"act_type": "relu"}, 
      "inputs": [[857, 0, 0]]
    }, 
    {
      "op": "ones_like", 
      "name": "ones_like41", 
      "inputs": [[858, 0, 0]]
    }, 
    {
      "op": "max", 
      "name": "max123", 
      "attrs": {"axis": "1"}, 
      "inputs": [[859, 0, 0]]
    }, 
    {
      "op": "argsort", 
      "name": "argsort82", 
      "attrs": {"axis": "2"}, 
      "inputs": [[860, 0, 0]]
    }, 
    {
      "op": "elemwise_add", 
      "name": "elemwise_add82", 
      "inputs": [[861, 0, 0], [860, 0, 0]]
    }, 
    {
      "op": "max", 
      "name": "max124", 
      "inputs": [[862, 0, 0]]
    }, 
    {
      "op": "broadcast_div", 
      "name": "broadcast_div82", 
      "inputs": [[862, 0, 0], [863, 0, 0]]
    }, 
    {
      "op": "argsort", 
      "name": "argsort83", 
      "attrs": {"axis": "1"}, 
      "inputs": [[860, 0, 0]]
    }, 
    {
      "op": "elemwise_add", 
      "name": "elemwise_add83", 
      "inputs": [[865, 0, 0], [860, 0, 0]]
    }, 
    {
      "op": "max", 
      "name": "max125", 
      "inputs": [[866, 0, 0]]
    }, 
    {
      "op": "broadcast_div", 
      "name": "broadcast_div83", 
      "inputs": [[866, 0, 0], [867, 0, 0]]
    }, 
    {
      "op": "stack", 
      "name": "stack41", 
      "attrs": {
        "axis": "1", 
        "num_args": "2"
      }, 
      "inputs": [[864, 0, 0], [868, 0, 0]]
    }, 
    {
      "op": "Concat", 
      "name": "concat41", 
      "attrs": {
        "dim": "1", 
        "num_args": "2"
      }, 
      "inputs": [[858, 0, 0], [869, 0, 0]]
    }, 
    {
      "op": "null", 
      "name": "DBstage3_unit2_conv1_weight", 
      "attrs": {
        "kernel": "(1, 1)", 
        "no_bias": "True", 
        "num_filter": "64", 
        "pad": "(0, 0)", 
        "stride": "(1, 1)", 
        "workspace": "512"
      }, 
      "inputs": []
    }, 
    {
      "op": "Convolution", 
      "name": "DBstage3_unit2_conv1", 
      "attrs": {
        "kernel": "(1, 1)", 
        "no_bias": "True", 
        "num_filter": "64", 
        "pad": "(0, 0)", 
        "stride": "(1, 1)", 
        "workspace": "512"
      }, 
      "inputs": [[870, 0, 0], [871, 0, 0]]
    }, 
    {
      "op": "null", 
      "name": "DBstage3_unit2_bn2_gamma", 
      "attrs": {
        "eps": "2e-05", 
        "fix_gamma": "False", 
        "momentum": "0.9"
      }, 
      "inputs": []
    }, 
    {
      "op": "null", 
      "name": "DBstage3_unit2_bn2_beta", 
      "attrs": {
        "eps": "2e-05", 
        "fix_gamma": "False", 
        "momentum": "0.9"
      }, 
      "inputs": []
    }, 
    {
      "op": "null", 
      "name": "DBstage3_unit2_bn2_moving_mean", 
      "attrs": {
        "__init__": "[\"zero\", {}]", 
        "eps": "2e-05", 
        "fix_gamma": "False", 
        "momentum": "0.9"
      }, 
…
        "no_bias": "True", 
        "num_filter": "64", 
        "pad": "(0, 0)", 
        "stride": "(1, 1)", 
        "workspace": "512"
      }, 
      "inputs": []
    }, 
    {
      "op": "Convolution", 
      "name": "DBstage3_unit18_conv1", 
      "attrs": {
        "kernel": "(1, 1)", 
        "no_bias": "True", 
        "num_filter": "64", 
        "pad": "(0, 0)", 
        "stride": "(1, 1)", 
        "workspace": "512"
      }, 
      "inputs": [[1526, 0, 0], [1527, 0, 0]]
    }, 
    {
      "op": "null", 
      "name": "DBstage3_unit18_bn2_gamma", 
      "attrs": {
        "eps": "2e-05", 
        "fix_gamma": "False", 
        "momentum": "0.9"
      }, 
      "inputs": []
    }, 
    {
      "op": "null", 
      "name": "DBstage3_unit18_bn2_beta", 
      "attrs": {
        "eps": "2e-05", 
        "fix_gamma": "False", 
        "momentum": "0.9"
      }, 
      "inputs": []
    }, 
    {
      "op": "null", 
      "name": "DBstage3_unit18_bn2_moving_mean", 
      "attrs": {
        "__init__": "[\"zero\", {}]", 
        "eps": "2e-05", 
        "fix_gamma": "False", 
        "momentum": "0.9"
      }, 
      "inputs": []
    }, 
    {
      "op": "null", 
      "name": "DBstage3_unit18_bn2_moving_var", 
      "attrs": {
        "__init__": "[\"one\", {}]", 
        "eps": "2e-05", 
        "fix_gamma": "False", 
        "momentum": "0.9"
      }, 
      "inputs": []
    }, 
    {
      "op": "BatchNorm", 
      "name": "DBstage3_unit18_bn2", 
      "attrs": {
        "eps": "2e-05", 
        "fix_gamma": "False", 
        "momentum": "0.9"
      }, 
      "inputs": [[1528, 0, 0], [1529, 0, 0], [1530, 0, 0], [1531, 0, 1], [1532, 0, 1]]
    }, 
    {
      "op": "Activation", 
      "name": "DBstage3_unit18_relu2", 
      "attrs": {"act_type": "relu"}, 
      "inputs": [[1533, 0, 0]]
    }, 
    {
      "op": "ones_like", 
      "name": "ones_like74", 
      "inputs": [[1534, 0, 0]]
    }, 
    {
      "op": "max", 
      "name": "max222", 
      "attrs": {"axis": "1"}, 
      "inputs": [[1535, 0, 0]]
    }, 
    {
      "op": "argsort", 
      "name": "argsort148", 
      "attrs": {"axis": "2"}, 
      "inputs": [[1536, 0, 0]]
    }, 
    {
      "op": "elemwise_add", 
      "name": "elemwise_add148", 
      "inputs": [[1537, 0, 0], [1536, 0, 0]]
    }, 
    {
      "op": "max", 
      "name": "max223", 
      "inputs": [[1538, 0, 0]]
    }, 
    {
      "op": "broadcast_div", 
      "name": "broadcast_div148", 
      "inputs": [[1538, 0, 0], [1539, 0, 0]]
    }, 
    {
      "op": "argsort", 
      "name": "argsort149", 
      "attrs": {"axis": "1"}, 
      "inputs": [[1536, 0, 0]]
    }, 
    {
      "op": "elemwise_add", 
      "name": "elemwise_add149", 
      "inputs": [[1541, 0, 0], [1536, 0, 0]]
    }, 
    {
      "op": "max", 
      "name": "max224", 
      "inputs": [[1542, 0, 0]]
    }, 
    {
      "op": "broadcast_div", 
      "name": "broadcast_div149", 
      "inputs": [[1542, 0, 0], [1543, 0, 0]]
    }, 
    {
      "op": "stack", 
      "name": "stack74", 
      "attrs": {
        "axis": "1", 
        "num_args": "2"
      }, 
      "inputs": [[1540, 0, 0], [1544, 0, 0]]
    }, 
    {
      "op": "Concat", 
      "name": "concat74", 
      "attrs": {
        "dim": "1", 
        "num_args": "2"
      }, 
      "inputs": [[1534, 0, 0], [1545, 0, 0]]
    }, 
    {
      "op": "null", 
      "name": "DBstage3_unit18_conv2_weight", 
      "attrs": {
        "kernel": "(3, 3)", 
        "no_bias": "True", 
        "num_filter": "16", 
        "pad": "(1, 1)", 
        "stride": "(1, 1)", 
        "workspace": "512"
      }, 
      "inputs": []
    }, 
    {
      "op": "Convolution", 
      "name": "DBstage3_unit18_conv2", 
      "attrs": {
        "kernel": "(3, 3)", 
        "no_bias": "True", 
        "num_filter": "16", 
        "pad": "(1, 1)", 
        "stride": "(1, 1)", 
        "workspace": "512"
      }, 
      "inputs": [[1546, 0, 0], [1547, 0, 0]]
    }, 
    {
      "op": "Concat", 
      "name": "DBstage3_concat18", 
      "attrs": {"num_args": "2"}, 
      "inputs": [[1508, 0, 0], [1548, 0, 0]]
    }, 
    {
      "op": "null", 
      "name": "DBstage3_concat18_cls_pred_conv_weight", 
      "attrs": {
        "kernel": "(3, 3)", 
        "num_filter": "32", 
        "pad": "(1, 1)", 
        "stride": "(1, 1)"
      }, 
      "inputs": []
    }, 
    {
      "op": "null", 
      "name": "DBstage3_concat18_cls_pred_conv_bias", 
      "attrs": {
        "__init__": "[\"constant\", {\"value\": 0.0}]", 
        "__lr_mult__": "2.0"
      }, 
      "inputs": []
    }, 
    {
      "op": "Convolution", 
      "name": "DBstage3_concat18_cls_pred_conv", 
      "attrs": {
        "kernel": "(3, 3)", 
        "num_filter": "32", 
        "pad": "(1, 1)", 
        "stride": "(1, 1)"
      }, 
      "inputs": [[1549, 0, 0], [1550, 0, 0], [1551, 0, 0]]
    }, 
    {
      "op": "transpose", 
      "name": "transpose3", 
      "attrs": {"axes": "(0, 2, 3, 1)"}, 
      "inputs": [[1552, 0, 0]]
    }, 
    {
      "op": "Flatten", 
      "name": "flatten5", 
      "inputs": [[1553, 0, 0]]
    }, 
    {
      "op": "null", 
      "name": "multi_feat_2_conv_1x1_conv_weight", 
      "attrs": {
        "kernel": "(1, 1)", 
        "num_filter": "128", 
        "pad": "(0, 0)", 
        "stride": "(1, 1)"
      }, 
      "inputs": []
    }, 
    {
      "op": "null", 
      "name": "multi_feat_2_conv_1x1_conv_bias", 
      "attrs": {
        "__init__": "[\"constant\", {\"value\": 0.0}]", 
        "__lr_mult__": "2.0"
      }, 
      "inputs": []
    }, 
    {
      "op": "Convolution", 
      "name": "multi_feat_2_conv_1x1_conv", 
      "attrs": {
        "kernel": "(1, 1)", 
        "num_filter": "128", 
        "pad": "(0, 0)", 
        "stride": "(1, 1)"
      }, 
      "inputs": [[1549, 0, 0], [1555, 0, 0], [1556, 0, 0]]
    }, 
    {
      "op": "Activation", 
      "name": "multi_feat_2_conv_1x1_relu", 
      "attrs": {"act_type": "relu"}, 
      "inputs": [[1557, 0, 0]]
    }, 
    {
      "op": "null", 
      "name": "multi_feat_2_conv_3x3_conv_weight", 
      "attrs": {
        "kernel": "(3, 3)", 
        "num_filter": "256", 
        "pad": "(1, 1)", 
        "stride": "(2, 2)"
      }, 
      "inputs": []
    }, 
    {
      "op": "null", 
      "name": "multi_feat_2_conv_3x3_conv_bias", 
      "attrs": {
        "__init__": "[\"constant\", {\"value\": 0.0}]", 
        "__lr_mult__": "2.0"
      }, 
      "inputs": []
    }, 
    {
      "op": "Convolution", 
      "name": "multi_feat_2_conv_3x3_conv", 
      "attrs": {
        "kernel": "(3, 3)", 
        "num_filter": "256", 
        "pad": "(1, 1)", 
        "stride": "(2, 2)"
      }, 
      "inputs": [[1558, 0, 0], [1559, 0, 0], [1560, 0, 0]]
    }, 
    {
      "op": "Activation", 
      "name": "multi_feat_2_conv_3x3_relu", 
      "attrs": {"act_type": "relu"}, 
      "inputs": [[1561, 0, 0]]
    }, 
    {
      "op": "null", 
      "name": "multi_feat_2_conv_3x3_relu_cls_pred_conv_weight", 
      "attrs": {
        "kernel": "(3, 3)", 
        "num_filter": "32", 
        "pad": "(1, 1)", 
        "stride": "(1, 1)"
      }, 
      "inputs": []
    }, 
    {
      "op": "null", 
      "name": "multi_feat_2_conv_3x3_relu_cls_pred_conv_bias", 
      "attrs": {
        "__init__": "[\"constant\", {\"value\": 0.0}]", 
        "__lr_mult__": "2.0"
      }, 
      "inputs": []
    }, 
    {
      "op": "Convolution", 
      "name": "multi_feat_2_conv_3x3_relu_cls_pred_conv", 
      "attrs": {
        "kernel": "(3, 3)", 
        "num_filter": "32", 
        "pad": "(1, 1)", 
        "stride": "(1, 1)"
      }, 
      "inputs": [[1562, 0, 0], [1563, 0, 0], [1564, 0, 0]]
    }, 
    {
      "op": "transpose", 
      "name": "transpose5", 
      "attrs": {"axes": "(0, 2, 3, 1)"}, 
      "inputs": [[1565, 0, 0]]
    }, 
    {
      "op": "Flatten", 
      "name": "flatten8", 
      "inputs": [[1566, 0, 0]]
    }, 
    {
      "op": "null", 
      "name": "multi_feat_3_conv_1x1_conv_weight", 
      "attrs": {
        "kernel": "(1, 1)", 
        "num_filter": "128", 
        "pad": "(0, 0)", 
        "stride": "(1, 1)"
      }, 
      "inputs": []
    }, 
    {
      "op": "null", 
      "name": "multi_feat_3_conv_1x1_conv_bias", 
      "attrs": {
        "__init__": "[\"constant\", {\"value\": 0.0}]", 
        "__lr_mult__": "2.0"
      }, 
      "inputs": []
    }, 
    {
      "op": "Convolution", 
      "name": "multi_feat_3_conv_1x1_conv", 
      "attrs": {
        "kernel": "(1, 1)", 
        "num_filter": "128", 
        "pad": "(0, 0)", 
        "stride": "(1, 1)"
      }, 
      "inputs": [[1562, 0, 0], [1568, 0, 0], [1569, 0, 0]]
    }, 
    {
      "op": "Activation", 
      "name": "multi_feat_3_conv_1x1_relu", 
      "attrs": {"act_type": "relu"}, 
      "inputs": [[1570, 0, 0]]
    }, 
    {
      "op": "null", 
      "name": "multi_feat_3_conv_3x3_conv_weight", 
      "attrs": {
        "kernel": "(3, 3)", 
        "num_filter": "256", 
        "pad": "(1, 1)", 
        "stride": "(2, 2)"
      }, 
      "inputs": []
    }, 
    {
      "op": "null", 
      "name": "multi_feat_3_conv_3x3_conv_bias", 
      "attrs": {
        "__init__": "[\"constant\", {\"value\": 0.0}]", 
        "__lr_mult__": "2.0"
      }, 
      "inputs": []
    }, 
    {
      "op": "Convolution", 
      "name": "multi_feat_3_conv_3x3_conv", 
      "attrs": {
        "kernel": "(3, 3)", 
        "num_filter": "256", 
        "pad": "(1, 1)", 
        "stride": "(2, 2)"
      }, 
      "inputs": [[1571, 0, 0], [1572, 0, 0], [1573, 0, 0]]
    }, 
    {
      "op": "Activation", 
      "name": "multi_feat_3_conv_3x3_relu", 
      "attrs": {"act_type": "relu"}, 
      "inputs": [[1574, 0, 0]]
    }, 
    {
      "op": "null", 
      "name": "multi_feat_3_conv_3x3_relu_cls_pred_conv_weight", 
      "attrs": {
        "kernel": "(3, 3)", 
        "num_filter": "32", 
        "pad": "(1, 1)", 
        "stride": "(1, 1)"
      }, 
      "inputs": []
    }, 
    {
      "op": "null", 
      "name": "multi_feat_3_conv_3x3_relu_cls_pred_conv_bias", 
      "attrs": {
        "__init__": "[\"constant\", {\"value\": 0.0}]", 
        "__lr_mult__": "2.0"
      }, 
      "inputs": []
    }, 
    {
      "op": "Convolution", 
      "name": "multi_feat_3_conv_3x3_relu_cls_pred_conv", 
      "attrs": {
        "kernel": "(3, 3)", 
        "num_filter": "32", 
        "pad": "(1, 1)", 
        "stride": "(1, 1)"
      }, 
      "inputs": [[1575, 0, 0], [1576, 0, 0], [1577, 0, 0]]
    }, 
    {
      "op": "transpose", 
      "name": "transpose7", 
      "attrs": {"axes": "(0, 2, 3, 1)"}, 
      "inputs": [[1578, 0, 0]]
    }, 
    {
      "op": "Flatten", 
      "name": "flatten11", 
      "inputs": [[1579, 0, 0]]
    }, 
    {
      "op": "null", 
      "name": "multi_feat_4_conv_1x1_conv_weight", 
      "attrs": {
        "kernel": "(1, 1)", 
        "num_filter": "128", 
        "pad": "(0, 0)", 
        "stride": "(1, 1)"
      }, 
      "inputs": []
    }, 
    {
      "op": "null", 
      "name": "multi_feat_4_conv_1x1_conv_bias", 
      "attrs": {
        "__init__": "[\"constant\", {\"value\": 0.0}]", 
        "__lr_mult__": "2.0"
      }, 
      "inputs": []
    }, 
    {
      "op": "Convolution", 
      "name": "multi_feat_4_conv_1x1_conv", 
      "attrs": {
        "kernel": "(1, 1)", 
        "num_filter": "128", 
        "pad": "(0, 0)", 
        "stride": "(1, 1)"
      }, 
      "inputs": [[1575, 0, 0], [1581, 0, 0], [1582, 0, 0]]
    }, 
    {
      "op": "Activation", 
      "name": "multi_feat_4_conv_1x1_relu", 
      "attrs": {"act_type": "relu"}, 
      "inputs": [[1583, 0, 0]]
    }, 
    {
      "op": "null", 
      "name": "multi_feat_4_conv_3x3_conv_weight", 
      "attrs": {
        "kernel": "(3, 3)", 
        "num_filter": "256", 
        "pad": "(1, 1)", 
        "stride": "(2, 2)"
      }, 
      "inputs": []
    }, 
    {
      "op": "null", 
      "name": "multi_feat_4_conv_3x3_conv_bias", 
      "attrs": {
        "__init__": "[\"constant\", {\"value\": 0.0}]", 
        "__lr_mult__": "2.0"
      }, 
      "inputs": []
    }, 
    {
      "op": "Convolution", 
      "name": "multi_feat_4_conv_3x3_conv", 
      "attrs": {
        "kernel": "(3, 3)", 
        "num_filter": "256", 
        "pad": "(1, 1)", 
        "stride": "(2, 2)"
      }, 
      "inputs": [[1584, 0, 0], [1585, 0, 0], [1586, 0, 0]]
    }, 
    {
      "op": "Activation", 
      "name": "multi_feat_4_conv_3x3_relu", 
      "attrs": {"act_type": "relu"}, 
      "inputs": [[1587, 0, 0]]
    }, 
    {
      "op": "null", 
      "name": "multi_feat_4_conv_3x3_relu_cls_pred_conv_weight", 
      "attrs": {
        "kernel": "(3, 3)", 
        "num_filter": "32", 
        "pad": "(1, 1)", 
        "stride": "(1, 1)"
      }, 
      "inputs": []
    }, 
    {
      "op": "null", 
      "name": "multi_feat_4_conv_3x3_relu_cls_pred_conv_bias", 
      "attrs": {
        "__init__": "[\"constant\", {\"value\": 0.0}]", 
        "__lr_mult__": "2.0"
      }, 
      "inputs": []
    }, 
    {
      "op": "Convolution", 
      "name": "multi_feat_4_conv_3x3_relu_cls_pred_conv", 
      "attrs": {
        "kernel": "(3, 3)", 
        "num_filter": "32", 
        "pad": "(1, 1)", 
        "stride": "(1, 1)"
      }, 
      "inputs": [[1588, 0, 0], [1589, 0, 0], [1590, 0, 0]]
    }, 
    {
      "op": "transpose", 
      "name": "transpose9", 
      "attrs": {"axes": "(0, 2, 3, 1)"}, 
      "inputs": [[1591, 0, 0]]
    }, 
    {
      "op": "Flatten", 
      "name": "flatten14", 
      "inputs": [[1592, 0, 0]]
    }, 
    {
      "op": "null", 
      "name": "multi_feat_5_conv_1x1_conv_weight", 
      "attrs": {
        "kernel": "(1, 1)", 
        "num_filter": "128", 
        "pad": "(0, 0)", 
        "stride": "(1, 1)"
      }, 
      "inputs": []
    }, 
    {
      "op": "null", 
      "name": "multi_feat_5_conv_1x1_conv_bias", 
      "attrs": {
        "__init__": "[\"constant\", {\"value\": 0.0}]", 
        "__lr_mult__": "2.0"
      }, 
      "inputs": []
    }, 
    {
      "op": "Convolution", 
      "name": "multi_feat_5_conv_1x1_conv", 
      "attrs": {
        "kernel": "(1, 1)", 
        "num_filter": "128", 
        "pad": "(0, 0)", 
        "stride": "(1, 1)"
      }, 
      "inputs": [[1588, 0, 0], [1594, 0, 0], [1595, 0, 0]]
    }, 
    {
      "op": "Activation", 
      "name": "multi_feat_5_conv_1x1_relu", 
      "attrs": {"act_type": "relu"}, 
      "inputs": [[1596, 0, 0]]
    }, 
    {
      "op": "null", 
      "name": "multi_feat_5_conv_3x3_conv_weight", 
      "attrs": {
        "kernel": "(3, 3)", 
        "num_filter": "128", 
        "pad": "(1, 1)", 
        "stride": "(2, 2)"
      }, 
      "inputs": []
    }, 
    {
      "op": "null", 
      "name": "multi_feat_5_conv_3x3_conv_bias", 
      "attrs": {
        "__init__": "[\"constant\", {\"value\": 0.0}]", 
        "__lr_mult__": "2.0"
      }, 
      "inputs": []
    }, 
    {
      "op": "Convolution", 
      "name": "multi_feat_5_conv_3x3_conv", 
      "attrs": {
        "kernel": "(3, 3)", 
        "num_filter": "128", 
        "pad": "(1, 1)", 
        "stride": "(2, 2)"
      }, 
      "inputs": [[1597, 0, 0], [1598, 0, 0], [1599, 0, 0]]
    }, 
    {
      "op": "Activation", 
      "name": "multi_feat_5_conv_3x3_relu", 
      "attrs": {"act_type": "relu"}, 
      "inputs": [[1600, 0, 0]]
    }, 
    {
      "op": "null", 
      "name": "multi_feat_5_conv_3x3_relu_cls_pred_conv_weight", 
      "attrs": {
        "kernel": "(3, 3)", 
        "num_filter": "32", 
        "pad": "(1, 1)", 
        "stride": "(1, 1)"
      }, 
      "inputs": []
    }, 
    {
      "op": "null", 
      "name": "multi_feat_5_conv_3x3_relu_cls_pred_conv_bias", 
      "attrs": {
        "__init__": "[\"constant\", {\"value\": 0.0}]", 
        "__lr_mult__": "2.0"
      }, 
      "inputs": []
    }, 
    {
      "op": "Convolution", 
      "name": "multi_feat_5_conv_3x3_relu_cls_pred_conv", 
      "attrs": {
        "kernel": "(3, 3)", 
        "num_filter": "32", 
        "pad": "(1, 1)", 
        "stride": "(1, 1)"
      }, 
      "inputs": [[1601, 0, 0], [1602, 0, 0], [1603, 0, 0]]
    }, 
    {
      "op": "transpose", 
      "name": "transpose11", 
      "attrs": {"axes": "(0, 2, 3, 1)"}, 
      "inputs": [[1604, 0, 0]]
    }, 
    {
      "op": "Flatten", 
      "name": "flatten17", 
      "inputs": [[1605, 0, 0]]
    }, 
    {
      "op": "Concat", 
      "name": "concat100", 
      "attrs": {
        "dim": "1", 
        "num_args": "6"
      }, 
      "inputs": [[790, 0, 0], [1554, 0, 0], [1567, 0, 0], [1580, 0, 0], [1593, 0, 0], [1606, 0, 0]]
    }, 
    {
      "op": "Reshape", 
      "name": "reshape0", 
      "attrs": {"shape": "(0, -1, 4)"}, 
      "inputs": [[1607, 0, 0]]
    }, 
    {
      "op": "transpose", 
      "name": "multibox_cls_pred", 
      "attrs": {"axes": "(0, 2, 1)"}, 
      "inputs": [[1608, 0, 0]]
    }, 
    {
      "op": "_contrib_MultiBoxPrior", 
      "name": "DBstage2_concat12_anchors", 
      "attrs": {
        "clip": "False", 
        "ratios": "(1,1.75,0.5714285714285714,2.5,0.4,3.5,0.2857142857142857)", 
        "sizes": "(0.015,0.08)", 
        "steps": "(-1.0, -1.0)"
      }, 
      "inputs": [[785, 0, 0]]
    }, 
    {
      "op": "Flatten", 
      "name": "flatten3", 
      "inputs": [[1610, 0, 0]]
    }, 
    {
      "op": "_contrib_MultiBoxPrior", 
      "name": "DBstage3_concat18_anchors", 
      "attrs": {
        "clip": "False", 
        "ratios": "(1,1.75,0.5714285714285714,2.5,0.4,3.5,0.2857142857142857)", 
        "sizes": "(0.1,0.18)", 
        "steps": "(-1.0, -1.0)"
      }, 
      "inputs": [[1549, 0, 0]]
    }, 
    {
      "op": "Flatten", 
      "name": "flatten6", 
      "inputs": [[1612, 0, 0]]
    }, 
    {
      "op": "_contrib_MultiBoxPrior", 
      "name": "multi_feat_2_conv_3x3_relu_anchors", 
      "attrs": {
        "clip": "False", 
        "ratios": "(1,1.75,0.5714285714285714,2.5,0.4,3.5,0.2857142857142857)", 
        "sizes": "(0.24,0.4)", 
        "steps": "(-1.0, -1.0)"
      }, 
      "inputs": [[1562, 0, 0]]
    }, 
    {
      "op": "Flatten", 
      "name": "flatten9", 
      "inputs": [[1614, 0, 0]]
    }, 
    {
      "op": "_contrib_MultiBoxPrior", 
      "name": "multi_feat_3_conv_3x3_relu_anchors", 
      "attrs": {
        "clip": "False", 
        "ratios": "(1,1.75,0.5714285714285714,2.5,0.4,3.5,0.2857142857142857)", 
        "sizes": "(0.5,0.63)", 
        "steps": "(-1.0, -1.0)"
      }, 
      "inputs": [[1575, 0, 0]]
    }, 
    {
      "op": "Flatten", 
      "name": "flatten12", 
      "inputs": [[1616, 0, 0]]
    }, 
    {
      "op": "_contrib_MultiBoxPrior", 
      "name": "multi_feat_4_conv_3x3_relu_anchors", 
      "attrs": {
        "clip": "False", 
        "ratios": "(1,1.75,0.5714285714285714,2.5,0.4,3.5,0.2857142857142857)", 
        "sizes": "(0.72,0.8)", 
        "steps": "(-1.0, -1.0)"
      }, 
      "inputs": [[1588, 0, 0]]
    }, 
    {
      "op": "Flatten", 
      "name": "flatten15", 
      "inputs": [[1618, 0, 0]]
    }, 
    {
      "op": "_contrib_MultiBoxPrior", 
      "name": "multi_feat_5_conv_3x3_relu_anchors", 
      "attrs": {
        "clip": "False", 
        "ratios": "(1,1.75,0.5714285714285714,2.5,0.4,3.5,0.2857142857142857)", 
        "sizes": "(0.81,0.9)", 
        "steps": "(-1.0, -1.0)"
      }, 
      "inputs": [[1601, 0, 0]]
    }, 
    {
      "op": "Flatten", 
      "name": "flatten18", 
      "inputs": [[1620, 0, 0]]
    }, 
    {
      "op": "Concat", 
      "name": "concat101", 
      "attrs": {
        "dim": "1", 
        "num_args": "6"
      }, 
      "inputs": [[1611, 0, 0], [1613, 0, 0], [1615, 0, 0], [1617, 0, 0], [1619, 0, 0], [1621, 0, 0]]
    }, 
    {
      "op": "Reshape", 
      "name": "multibox_anchors", 
      "attrs": {"shape": "(0, -1, 4)"}, 
      "inputs": [[1622, 0, 0]]
    }, 
    {
      "op": "null", 
      "name": "label", 
      "inputs": []
    }, 
    {
      "op": "_contrib_MultiBoxTarget", 
      "name": "multibox_target", 
      "attrs": {
        "ignore_label": "-1", 
        "minimum_negative_samples": "0", 
        "negative_mining_ratio": "3", 
        "negative_mining_thresh": "0.5", 
        "overlap_threshold": "0.5", 
        "variances": "(0.1, 0.1, 0.2, 0.2)"
      }, 
      "inputs": [[1623, 0, 0], [1624, 0, 0], [1609, 0, 0]]
    }, 
    {
      "op": "SoftmaxOutput", 
      "name": "cls_prob", 
      "attrs": {
        "grad_scale": "1.0", 
        "ignore_label": "-1", 
        "multi_output": "True", 
        "normalization": "valid", 
        "use_ignore": "True"
      }, 
      "inputs": [[1609, 0, 0], [1625, 2, 0]]
    }, 
    {
      "op": "null", 
      "name": "DBstage2_concat12_loc_pred_conv_weight", 
      "attrs": {
        "kernel": "(3, 3)", 
        "num_filter": "32", 
        "pad": "(1, 1)", 
        "stride": "(1, 1)"
      }, 
      "inputs": []
    }, 
    {
      "op": "null", 
      "name": "DBstage2_concat12_loc_pred_conv_bias", 
      "attrs": {
        "__init__": "[\"constant\", {\"value\": 0.0}]", 
        "__lr_mult__": "2.0"
      }, 
      "inputs": []
    }, 
    {
      "op": "Convolution", 
      "name": "DBstage2_concat12_loc_pred_conv", 
      "attrs": {
        "kernel": "(3, 3)", 
        "num_filter": "32", 
        "pad": "(1, 1)", 
        "stride": "(1, 1)"
      }, 
      "inputs": [[785, 0, 0], [1627, 0, 0], [1628, 0, 0]]
    }, 
    {
      "op": "transpose", 
      "name": "transpose0", 
      "attrs": {"axes": "(0, 2, 3, 1)"}, 
      "inputs": [[1629, 0, 0]]
    }, 
    {
      "op": "Flatten", 
      "name": "flatten1", 
      "inputs": [[1630, 0, 0]]
    }, 
    {
      "op": "null", 
      "name": "DBstage3_concat18_loc_pred_conv_weight", 
      "attrs": {
        "kernel": "(3, 3)", 
        "num_filter": "32", 
        "pad": "(1, 1)", 
        "stride": "(1, 1)"
      }, 
      "inputs": []
    }, 
    {
      "op": "null", 
      "name": "DBstage3_concat18_loc_pred_conv_bias", 
      "attrs": {
        "__init__": "[\"constant\", {\"value\": 0.0}]", 
        "__lr_mult__": "2.0"
      }, 
      "inputs": []
    }, 
    {
      "op": "Convolution", 
      "name": "DBstage3_concat18_loc_pred_conv", 
      "attrs": {
        "kernel": "(3, 3)", 
        "num_filter": "32", 
        "pad": "(1, 1)", 
        "stride": "(1, 1)"
      }, 
      "inputs": [[1549, 0, 0], [1632, 0, 0], [1633, 0, 0]]
    }, 
    {
      "op": "transpose", 
      "name": "transpose2", 
      "attrs": {"axes": "(0, 2, 3, 1)"}, 
      "inputs": [[1634, 0, 0]]
    }, 
    {
      "op": "Flatten", 
      "name": "flatten4", 
      "inputs": [[1635, 0, 0]]
    }, 
    {
      "op": "null", 
      "name": "multi_feat_2_conv_3x3_relu_loc_pred_conv_weight", 
      "attrs": {
        "kernel": "(3, 3)", 
        "num_filter": "32", 
        "pad": "(1, 1)", 
        "stride": "(1, 1)"
      }, 
      "inputs": []
    }, 
    {
      "op": "null", 
      "name": "multi_feat_2_conv_3x3_relu_loc_pred_conv_bias", 
      "attrs": {
        "__init__": "[\"constant\", {\"value\": 0.0}]", 
        "__lr_mult__": "2.0"
      }, 
      "inputs": []
    }, 
    {
      "op": "Convolution", 
      "name": "multi_feat_2_conv_3x3_relu_loc_pred_conv", 
      "attrs": {
        "kernel": "(3, 3)", 
        "num_filter": "32", 
        "pad": "(1, 1)", 
        "stride": "(1, 1)"
      }, 
      "inputs": [[1562, 0, 0], [1637, 0, 0], [1638, 0, 0]]
    }, 
    {
      "op": "transpose", 
      "name": "transpose4", 
      "attrs": {"axes": "(0, 2, 3, 1)"}, 
      "inputs": [[1639, 0, 0]]
    }, 
    {
      "op": "Flatten", 
      "name": "flatten7", 
      "inputs": [[1640, 0, 0]]
    }, 
    {
      "op": "null", 
      "name": "multi_feat_3_conv_3x3_relu_loc_pred_conv_weight", 
      "attrs": {
        "kernel": "(3, 3)", 
        "num_filter": "32", 
        "pad": "(1, 1)", 
        "stride": "(1, 1)"
      }, 
      "inputs": []
    }, 
    {
      "op": "null", 
      "name": "multi_feat_3_conv_3x3_relu_loc_pred_conv_bias", 
      "attrs": {
        "__init__": "[\"constant\", {\"value\": 0.0}]", 
        "__lr_mult__": "2.0"
      }, 
      "inputs": []
    }, 
    {
      "op": "Convolution", 
      "name": "multi_feat_3_conv_3x3_relu_loc_pred_conv", 
      "attrs": {
        "kernel": "(3, 3)", 
        "num_filter": "32", 
        "pad": "(1, 1)", 
        "stride": "(1, 1)"
      }, 
      "inputs": [[1575, 0, 0], [1642, 0, 0], [1643, 0, 0]]
    }, 
    {
      "op": "transpose", 
      "name": "transpose6", 
      "attrs": {"axes": "(0, 2, 3, 1)"}, 
      "inputs": [[1644, 0, 0]]
    }, 
    {
      "op": "Flatten", 
      "name": "flatten10", 
      "inputs": [[1645, 0, 0]]
    }, 
    {
      "op": "null", 
      "name": "multi_feat_4_conv_3x3_relu_loc_pred_conv_weight", 
      "attrs": {
        "kernel": "(3, 3)", 
        "num_filter": "32", 
        "pad": "(1, 1)", 
        "stride": "(1, 1)"
      }, 
      "inputs": []
    }, 
    {
      "op": "null", 
      "name": "multi_feat_4_conv_3x3_relu_loc_pred_conv_bias", 
      "attrs": {
        "__init__": "[\"constant\", {\"value\": 0.0}]", 
        "__lr_mult__": "2.0"
      }, 
      "inputs": []
    }, 
    {
      "op": "Convolution", 
      "name": "multi_feat_4_conv_3x3_relu_loc_pred_conv", 
      "attrs": {
        "kernel": "(3, 3)", 
        "num_filter": "32", 
        "pad": "(1, 1)", 
        "stride": "(1, 1)"
      }, 
      "inputs": [[1588, 0, 0], [1647, 0, 0], [1648, 0, 0]]
    }, 
    {
      "op": "transpose", 
      "name": "transpose8", 
      "attrs": {"axes": "(0, 2, 3, 1)"}, 
      "inputs": [[1649, 0, 0]]
    }, 
    {
      "op": "Flatten", 
      "name": "flatten13", 
      "inputs": [[1650, 0, 0]]
    }, 
    {
      "op": "null", 
      "name": "multi_feat_5_conv_3x3_relu_loc_pred_conv_weight", 
      "attrs": {
        "kernel": "(3, 3)", 
        "num_filter": "32", 
        "pad": "(1, 1)", 
        "stride": "(1, 1)"
      }, 
      "inputs": []
    }, 
    {
      "op": "null", 
      "name": "multi_feat_5_conv_3x3_relu_loc_pred_conv_bias", 
      "attrs": {
        "__init__": "[\"constant\", {\"value\": 0.0}]", 
        "__lr_mult__": "2.0"
      }, 
      "inputs": []
    }, 
    {
      "op": "Convolution", 
      "name": "multi_feat_5_conv_3x3_relu_loc_pred_conv", 
      "attrs": {
        "kernel": "(3, 3)", 
        "num_filter": "32", 
        "pad": "(1, 1)", 
        "stride": "(1, 1)"
      }, 
      "inputs": [[1601, 0, 0], [1652, 0, 0], [1653, 0, 0]]
    }, 
    {
      "op": "transpose", 
      "name": "transpose10", 
      "attrs": {"axes": "(0, 2, 3, 1)"}, 
      "inputs": [[1654, 0, 0]]
    }, 
    {
      "op": "Flatten", 
      "name": "flatten16", 
      "inputs": [[1655, 0, 0]]
    }, 
    {
      "op": "Concat", 
      "name": "multibox_loc_pred", 
      "attrs": {
        "dim": "1", 
        "num_args": "6"
      }, 
      "inputs": [[1631, 0, 0], [1636, 0, 0], [1641, 0, 0], [1646, 0, 0], [1651, 0, 0], [1656, 0, 0]]
    }, 
    {
      "op": "elemwise_sub", 
      "name": "_minus0", 
      "inputs": [[1657, 0, 0], [1625, 0, 0]]
    }, 
    {
      "op": "elemwise_mul", 
      "name": "_mul0", 
      "inputs": [[1625, 1, 0], [1658, 0, 0]]
    }, 
    {
      "op": "smooth_l1", 
      "name": "loc_loss_", 
      "attrs": {"scalar": "1.0"}, 
      "inputs": [[1659, 0, 0]]
    }, 
    {
      "op": "MakeLoss", 
      "name": "loc_loss", 
      "attrs": {
        "grad_scale": "1.0", 
        "normalization": "valid"
      }, 
      "inputs": [[1660, 0, 0]]
    }, 
    {
      "op": "MakeLoss", 
      "name": "cls_label", 
      "attrs": {"grad_scale": "0"}, 
      "inputs": [[1625, 2, 0]]
    }, 
    {
      "op": "_contrib_MultiBoxDetection", 
      "name": "detection", 
      "attrs": {
        "force_suppress": "False", 
        "nms_threshold": "0.45", 
        "nms_topk": "400", 
        "variances": "(0.1, 0.1, 0.2, 0.2)"
      }, 
      "inputs": [[1626, 0, 0], [1657, 0, 0], [1623, 0, 0]]
    }, 
    {
      "op": "MakeLoss", 
      "name": "det_out", 
      "attrs": {"grad_scale": "0"}, 
      "inputs": [[1663, 0, 0]]
    }
  ], 
  "arg_nodes": [
    0, 
    1, 
    2, 
    3, 
    4, 
    18, 
    20, 
    21, 
    22, 
    23, 
    27, 
    28, 
    29, 
    30, 
    45, 
    47, 
    48, 
    49, 
    50, 
    65, 
    68, 
    69, 
    70, 
    71, 
    86, 
    88, 
    89, 
    90, 
    91, 
    106, 
    109, 
    110, 
    111, 
    112, 
    127, 
    129, 
    130, 
    131, 
    132, 
    147, 
    150, 
    151, 
    152, 
    153, 
    168, 
    170, 
    171, 
    172, 
    173, 
    188, 
    191, 
    192, 
    193, 
    194, 
    209, 
    211, 
    212, 
    213, 
    214, 
    229, 
    232, 
    233, 
    234, 
    235, 
    250, 
    252, 
    253, 
    254, 
    255, 
    270, 
    273, 
    274, 
    275, 
    276, 
    291, 
    294, 
    295, 
    296, 
    297, 
    312, 
    314, 
    315, 
    316, 
    317, 
    332, 
    335, 
    336, 
    337, 
    338, 
    353, 
    355, 
    356, 
    357, 
    358, 
    373, 
    376, 
    377, 
    378, 
    379, 
    394, 
    396, 
    397, 
    398, 
    399, 
    414, 
    417, 
    418, 
    419, 
    420, 
    435, 
    437, 
    438, 
    439, 
    440, 
    455, 
    458, 
    459, 
    460, 
    461, 
    476, 
    478, 
    479, 
    480, 
    481, 
    496, 
    499, 
    500, 
    501, 
    502, 
    517, 
    519, 
    520, 
    521, 
    522, 
    537, 
    540, 
    541, 
    542, 
    543, 
    558, 
    560, 
    561, 
    562, 
    563, 
    578, 
    581, 
    582, 
    583, 
    584, 
    599, 
    601, 
    602, 
    603, 
    604, 
    619, 
    622, 
    623, 
    624, 
    625, 
    640, 
    642, 
    643, 
    644, 
    645, 
    660, 
    663, 
    664, 
    665, 
    666, 
    681, 
    683, 
    684, 
    685, 
    686, 
    701, 
    704, 
    705, 
    706, 
    707, 
    722, 
    724, 
    725, 
    726, 
    727, 
    742, 
    745, 
    746, 
    747, 
    748, 
    763, 
    765, 
    766, 
    767, 
    768, 
    783, 
    786, 
    787, 
    791, 
    792, 
    793, 
    794, 
    809, 
    812, 
    813, 
    814, 
    815, 
    830, 
    832, 
    833, 
    834, 
    835, 
    850, 
    853, 
    854, 
    855, 
    856, 
    871, 
    873, 
    874, 
    875, 
    876, 
    891, 
    894, 
    895, 
    896, 
    897, 
    912, 
    914, 
    915, 
    916, 
    917, 
    932, 
    935, 
    936, 
    937, 
    938, 
    953, 
    955, 
    956, 
    957, 
    958, 
    973, 
    976, 
    977, 
    978, 
    979, 
    994, 
    996, 
    997, 
    998, 
    999, 
    1014, 
    1017, 
    1018, 
    1019, 
    1020, 
    1035, 
    1037, 
    1038, 
    1039, 
    1040, 
    1055, 
    1058, 
    1059, 
    1060, 
    1061, 
    1076, 
    1078, 
    1079, 
    1080, 
    1081, 
    1096, 
    1099, 
    1100, 
    1101, 
    1102, 
    1117, 
    1119, 
    1120, 
    1121, 
    1122, 
    1137, 
    1140, 
    1141, 
    1142, 
    1143, 
    1158, 
    1160, 
    1161, 
    1162, 
    1163, 
    1178, 
    1181, 
    1182, 
    1183, 
    1184, 
    1199, 
    1201, 
    1202, 
    1203, 
    1204, 
    1219, 
    1222, 
    1223, 
    1224, 
    1225, 
    1240, 
    1242, 
    1243, 
    1244, 
    1245, 
    1260, 
    1263, 
    1264, 
    1265, 
    1266, 
    1281, 
    1283, 
    1284, 
    1285, 
    1286, 
    1301, 
    1304, 
    1305, 
    1306, 
    1307, 
    1322, 
    1324, 
    1325, 
    1326, 
    1327, 
    1342, 
    1345, 
    1346, 
    1347, 
    1348, 
    1363, 
    1365, 
    1366, 
    1367, 
    1368, 
    1383, 
    1386, 
    1387, 
    1388, 
    1389, 
    1404, 
    1406, 
    1407, 
    1408, 
    1409, 
    1424, 
    1427, 
    1428, 
    1429, 
    1430, 
    1445, 
    1447, 
    1448, 
    1449, 
    1450, 
    1465, 
    1468, 
    1469, 
    1470, 
    1471, 
    1486, 
    1488, 
    1489, 
    1490, 
    1491, 
    1506, 
    1509, 
    1510, 
    1511, 
    1512, 
    1527, 
    1529, 
    1530, 
    1531, 
    1532, 
    1547, 
    1550, 
    1551, 
    1555, 
    1556, 
    1559, 
    1560, 
    1563, 
    1564, 
    1568, 
    1569, 
    1572, 
    1573, 
    1576, 
    1577, 
    1581, 
    1582, 
    1585, 
    1586, 
    1589, 
    1590, 
    1594, 
    1595, 
    1598, 
    1599, 
    1602, 
    1603, 
    1624, 
    1627, 
    1628, 
    1632, 
    1633, 
    1637, 
    1638, 
    1642, 
    1643, 
    1647, 
    1648, 
    1652, 
    1653
  ], 
  "node_row_ptr": [
    0, 
    1, 
    2, 
    3, 
    4, 
    5, 
    8, 
    9, 
    10, 
    11, 
    12, 
    13, 
    14, 
    15, 
    16, 
    17, 
    18, 
    19, 
    20, 
    21, 
    22, 
    23, 
    24, 
    25, 
    26, 
    29, 
    30, 
    31, 
    32, 
    33, 
    34, 
    35, 
    38, 
    39, 
    40, 
    41, 
    42, 
    43, 
    44, 
    45, 
    46, 
    47, 
    48, 
    49, 
    50, 
    51, 
    52, 
    53, 
    54, 
    55, 
    56, 
    57, 
    60, 
    61, 
    62, 
    63, 
    64, 
    65, 
    66, 
    67, 
    68, 
    69, 
    70, 
    71, 
    72, 
    73, 
    74, 
    75, 
    76, 
    77, 
    78, 
    79, 
    80, 
    83, 
    84, 
    85, 
    86, 
    87, 
    88, 
    89, 
    90, 
    91, 
    92, 
    93, 
    94, 
    95, 
    96, 
    97, 
    98, 
    99, 
    100, 
    101, 
    102, 
    105, 
    106, 
    107, 
    108, 
    109, 
    110, 
    111, 
    112, 
    113, 
    114, 
    115, 
    116, 
    117, 
    118, 
    119, 
    120, 
    121, 
    122, 
    123, 
    124, 
    125, 
    128, 
    129, 
    130, 
    131, 
    132, 
    133, 
    134, 
    135, 
    136, 
    137, 
    138, 
    139, 
    140, 
    141, 
    142, 
    143, 
    144, 
    145, 
    146, 
    147, 
    150, 
    151, 
    152, 
    153, 
    154, 
    155, 
    156, 
    157, 
    158, 
    159, 
    160, 
    161, 
    162, 
    163, 
    164, 
    165, 
    166, 
    167, 
    168, 
    169, 
    170, 
    173, 
    174, 
    175, 
    176, 
    177, 
    178, 
    179, 
    180, 
    181, 
    182, 
    183, 
    184, 
    185, 
    186, 
    187, 
    188, 
    189, 
    190, 
    191, 
    192, 
    195, 
    196, 
    197, 
    198, 
    199, 
    200, 
    201, 
    202, 
    203, 
    204, 
    205, 
    206, 
    207, 
    208, 
    209, 
    210, 
    211, 
    212, 
    213, 
    214, 
    215, 
    218, 
    219, 
    220, 
    221, 
    222, 
    223, 
    224, 
    225, 
    226, 
    227, 
    228, 
    229, 
    230, 
    231, 
    232, 
    233, 
    234, 
    235, 
    236, 
    237, 
    240, 
    241, 
    242, 
    243, 
    244, 
    245, 
    246, 
    247, 
    248, 
    249, 
    250, 
    251, 
    252, 
    253, 
    254, 
    255, 
    256, 
    257, 
    258, 
    259, 
    260, 
    263, 
    264, 
    265, 
    266, 
    267, 
    268, 
    269, 
    270, 
    271, 
    272, 
    273, 
    274, 
    275, 
    276, 
    277, 
    278, 
    279, 
    280, 
    281, 
    282, 
    285, 
    286, 
    287, 
    288, 
    289, 
    290, 
    291, 
    292, 
    293, 
    294, 
    295, 
    296, 
    297, 
    298, 
    299, 
    300, 
    301, 
    302, 
    303, 
    304, 
    305, 
    308, 
    309, 
    310, 
    311, 
    312, 
    313, 
    314, 
    315, 
    316, 
    317, 
    318, 
    319, 
    320, 
    321, 
    322, 
    323, 
    324, 
    325, 
    326, 
    327, 
    328, 
    331, 
    332, 
    333, 
    334, 
    335, 
    336, 
    337, 
    338, 
    339, 
    340, 
    341, 
    342, 
    343, 
    344, 
    345, 
    346, 
    347, 
    348, 
    349, 
    350, 
    353, 
    354, 
    355, 
    356, 
    357, 
    358, 
    359, 
    360, 
    361, 
    362, 
    363, 
    364, 
    365, 
    366, 
    367, 
    368, 
    369, 
    370, 
    371, 
    372, 
    373, 
    376, 
    377, 
    378, 
    379, 
    380, 
    381, 
    382, 
    383, 
    384, 
    385, 
    386, 
    387, 
    388, 
    389, 
    390, 
    391, 
    392, 
    393, 
    394, 
    395, 
    398, 
    399, 
    400, 
    401, 
    402, 
    403, 
    404, 
    405, 
    406, 
    407, 
    408, 
    409, 
    410, 
    411, 
    412, 
    413, 
    414, 
    415, 
    416, 
    417, 
    418, 
    421, 
    422, 
    423, 
    424, 
    425, 
    426, 
    427, 
    428, 
    429, 
    430, 
    431, 
    432, 
    433, 
    434, 
    435, 
    436, 
    437, 
    438, 
    439, 
    440, 
    443, 
    444, 
    445, 
    446, 
    447, 
    448, 
    449, 
    450, 
    451, 
    452, 
    453, 
    454, 
    455, 
    456, 
    457, 
    458, 
    459, 
    460, 
    461, 
    462, 
    463, 
    466, 
    467, 
    468, 
    469, 
    470, 
    471, 
    472, 
    473, 
    474, 
    475, 
    476, 
    477, 
    478, 
    479, 
    480, 
    481, 
    482, 
    483, 
    484, 
    485, 
    488, 
    489, 
    490, 
    491, 
    492, 
    493, 
    494, 
    495, 
    496, 
    497, 
    498, 
    499, 
    500, 
    501, 
    502, 
    503, 
    504, 
    505, 
    506, 
    507, 
    508, 
    511, 
    512, 
    513, 
    514, 
    515, 
    516, 
    517, 
    518, 
    519, 
    520, 
    521, 
    522, 
    523, 
    524, 
    525, 
    526, 
    527, 
    528, 
    529, 
    530, 
    533, 
    534, 
    535, 
    536, 
    537, 
    538, 
    539, 
    540, 
    541, 
    542, 
    543, 
    544, 
    545, 
    546, 
    547, 
    548, 
    549, 
    550, 
    551, 
    552, 
    553, 
    556, 
    557, 
    558, 
    559, 
    560, 
    561, 
    562, 
    563, 
    564, 
    565, 
    566, 
    567, 
    568, 
    569, 
    570, 
    571, 
    572, 
    573, 
    574, 
    575, 
    578, 
    579, 
    580, 
    581, 
    582, 
    583, 
    584, 
    585, 
    586, 
    587, 
    588, 
    589, 
    590, 
    591, 
    592, 
    593, 
    594, 
    595, 
    596, 
    597, 
    598, 
    601, 
    602, 
    603, 
    604, 
    605, 
    606, 
    607, 
    608, 
    609, 
    610, 
    611, 
    612, 
    613, 
    614, 
    615, 
    616, 
    617, 
    618, 
    619, 
    620, 
    623, 
    624, 
    625, 
    626, 
    627, 
    628, 
    629, 
    630, 
    631, 
    632, 
    633, 
    634, 
    635, 
    636, 
    637, 
    638, 
    639, 
    640, 
    641, 
    642, 
    643, 
    646, 
    647, 
    648, 
    649, 
    650, 
    651, 
    652, 
    653, 
    654, 
    655, 
    656, 
    657, 
    658, 
    659, 
    660, 
    661, 
    662, 
    663, 
    664, 
    665, 
    668, 
    669, 
    670, 
    671, 
    672, 
    673, 
    674, 
    675, 
    676, 
    677, 
    678, 
    679, 
    680, 
    681, 
    682, 
    683, 
    684, 
    685, 
    686, 
    687, 
    688, 
    691, 
    692, 
    693, 
    694, 
    695, 
    696, 
    697, 
    698, 
    699, 
    700, 
    701, 
    702, 
    703, 
    704, 
    705, 
    706, 
    707, 
    708, 
    709, 
    710, 
    713, 
    714, 
    715, 
    716, 
    717, 
    718, 
    719, 
    720, 
    721, 
    722, 
    723, 
    724, 
    725, 
    726, 
    727, 
    728, 
    729, 
    730, 
    731, 
    732, 
    733, 
    736, 
    737, 
    738, 
    739, 
    740, 
    741, 
    742, 
    743, 
    744, 
    745, 
    746, 
    747, 
    748, 
    749, 
    750, 
    751, 
    752, 
    753, 
    754, 
    755, 
    758, 
    759, 
    760, 
    761, 
    762, 
    763, 
    764, 
    765, 
    766, 
    767, 
    768, 
    769, 
    770, 
    771, 
    772, 
    773, 
    774, 
    775, 
    776, 
    777, 
    778, 
    781, 
    782, 
    783, 
    784, 
    785, 
    786, 
    787, 
    788, 
    789, 
    790, 
    791, 
    792, 
    793, 
    794, 
    795, 
    796, 
    797, 
    798, 
    799, 
    800, 
    803, 
    804, 
    805, 
    806, 
    807, 
    808, 
    809, 
    810, 
    811, 
    812, 
    813, 
    814, 
    815, 
    816, 
    817, 
    818, 
    819, 
    820, 
    821, 
    822, 
    823, 
    826, 
    827, 
    828, 
    829, 
    830, 
    831, 
    832, 
    833, 
    834, 
    835, 
    836, 
    837, 
    838, 
    839, 
    840, 
    841, 
    842, 
    843, 
    844, 
    845, 
    848, 
    849, 
    850, 
    851, 
    852, 
    853, 
    854, 
    855, 
    856, 
    857, 
    858, 
    859, 
    860, 
    861, 
    862, 
    863, 
    864, 
    865, 
    866, 
    867, 
    868, 
    869, 
    870, 
    871, 
    872, 
    873, 
    876, 
    877, 
    878, 
    879, 
    880, 
    881, 
    882, 
    883, 
    884, 
    885, 
    886, 
    887, 
    888, 
    889, 
    890, 
    891, 
    892, 
    893, 
    894, 
    895, 
    896, 
    899, 
    900, 
    901, 
    902, 
    903, 
    904, 
    905, 
    906, 
    907, 
    908, 
    909, 
    910, 
    911, 
    912, 
    913, 
    914, 
    915, 
    916, 
    917, 
    918, 
    921, 
    922, 
    923, 
    924, 
    925, 
    926, 
    927, 
    928, 
    929, 
    930, 
    931, 
    932, 
    933, 
    934, 
    935, 
    936, 
    937, 
    938, 
    939, 
    940, 
    941, 
    944, 
    945, 
    946, 
    947, 
    948, 
    949, 
    950, 
    951, 
    952, 
    953, 
    954, 
    955, 
    956, 
    957, 
    958, 
    959, 
    960, 
    961, 
    962, 
    963, 
    966, 
    967, 
    968, 
    969, 
    970, 
    971, 
    972, 
    973, 
    974, 
    975, 
    976, 
    977, 
    978, 
    979, 
    980, 
    981, 
    982, 
    983, 
    984, 
    985, 
    986, 
    989, 
    990, 
    991, 
    992, 
    993, 
    994, 
    995, 
    996, 
    997, 
    998, 
    999, 
    1000, 
    1001, 
    1002, 
    1003, 
    1004, 
    1005, 
    1006, 
    1007, 
    1008, 
    1011, 
    1012, 
    1013, 
    1014, 
    1015, 
    1016, 
    1017, 
    1018, 
    1019, 
    1020, 
    1021, 
    1022, 
    1023, 
    1024, 
    1025, 
    1026, 
    1027, 
    1028, 
    1029, 
    1030, 
    1031, 
    1034, 
    1035, 
    1036, 
    1037, 
    1038, 
    1039, 
    1040, 
    1041, 
    1042, 
    1043, 
    1044, 
    1045, 
    1046, 
    1047, 
    1048, 
    1049, 
    1050, 
    1051, 
    1052, 
    1053, 
    1056, 
    1057, 
    1058, 
    1059, 
    1060, 
    1061, 
    1062, 
    1063, 
    1064, 
    1065, 
    1066, 
    1067, 
    1068, 
    1069, 
    1070, 
    1071, 
    1072, 
    1073, 
    1074, 
    1075, 
    1076, 
    1079, 
    1080, 
    1081, 
    1082, 
    1083, 
    1084, 
    1085, 
    1086, 
    1087, 
    1088, 
    1089, 
    1090, 
    1091, 
    1092, 
    1093, 
    1094, 
    1095, 
    1096, 
    1097, 
    1098, 
    1101, 
    1102, 
    1103, 
    1104, 
    1105, 
    1106, 
    1107, 
    1108, 
    1109, 
    1110, 
    1111, 
    1112, 
    1113, 
    1114, 
    1115, 
    1116, 
    1117, 
    1118, 
    1119, 
    1120, 
    1121, 
    1124, 
    1125, 
    1126, 
    1127, 
    1128, 
    1129, 
    1130, 
    1131, 
    1132, 
    1133, 
    1134, 
    1135, 
    1136, 
    1137, 
    1138, 
    1139, 
    1140, 
    1141, 
    1142, 
    1143, 
    1146, 
    1147, 
    1148, 
    1149, 
    1150, 
    1151, 
    1152, 
    1153, 
    1154, 
    1155, 
    1156, 
    1157, 
    1158, 
    1159, 
    1160, 
    1161, 
    1162, 
    1163, 
    1164, 
    1165, 
    1166, 
    1169, 
    1170, 
    1171, 
    1172, 
    1173, 
    1174, 
    1175, 
    1176, 
    1177, 
    1178, 
    1179, 
    1180, 
    1181, 
    1182, 
    1183, 
    1184, 
    1185, 
    1186, 
    1187, 
    1188, 
    1191, 
    1192, 
    1193, 
    1194, 
    1195, 
    1196, 
    1197, 
    1198, 
    1199, 
    1200, 
    1201, 
    1202, 
    1203, 
    1204, 
    1205, 
    1206, 
    1207, 
    1208, 
    1209, 
    1210, 
    1211, 
    1214, 
    1215, 
    1216, 
    1217, 
    1218, 
    1219, 
    1220, 
    1221, 
    1222, 
    1223, 
    1224, 
    1225, 
    1226, 
    1227, 
    1228, 
    1229, 
    1230, 
    1231, 
    1232, 
    1233, 
    1236, 
    1237, 
    1238, 
    1239, 
    1240, 
    1241, 
    1242, 
    1243, 
    1244, 
    1245, 
    1246, 
    1247, 
    1248, 
    1249, 
    1250, 
    1251, 
    1252, 
    1253, 
    1254, 
    1255, 
    1256, 
    1259, 
    1260, 
    1261, 
    1262, 
    1263, 
    1264, 
    1265, 
    1266, 
    1267, 
    1268, 
    1269, 
    1270, 
    1271, 
    1272, 
    1273, 
    1274, 
    1275, 
    1276, 
    1277, 
    1278, 
    1281, 
    1282, 
    1283, 
    1284, 
    1285, 
    1286, 
    1287, 
    1288, 
    1289, 
    1290, 
    1291, 
    1292, 
    1293, 
    1294, 
    1295, 
    1296, 
    1297, 
    1298, 
    1299, 
    1300, 
    1301, 
    1304, 
    1305, 
    1306, 
    1307, 
    1308, 
    1309, 
    1310, 
    1311, 
    1312, 
    1313, 
    1314, 
    1315, 
    1316, 
    1317, 
    1318, 
    1319, 
    1320, 
    1321, 
    1322, 
    1323, 
    1326, 
    1327, 
    1328, 
    1329, 
    1330, 
    1331, 
    1332, 
    1333, 
    1334, 
    1335, 
    1336, 
    1337, 
    1338, 
    1339, 
    1340, 
    1341, 
    1342, 
    1343, 
    1344, 
    1345, 
    1346, 
    1349, 
    1350, 
    1351, 
    1352, 
    1353, 
    1354, 
    1355, 
    1356, 
    1357, 
    1358, 
    1359, 
    1360, 
    1361, 
    1362, 
    1363, 
    1364, 
    1365, 
    1366, 
    1367, 
    1368, 
    1371, 
    1372, 
    1373, 
    1374, 
    1375, 
    1376, 
    1377, 
    1378, 
    1379, 
    1380, 
    1381, 
    1382, 
    1383, 
    1384, 
    1385, 
    1386, 
    1387, 
    1388, 
    1389, 
    1390, 
    1391, 
    1394, 
    1395, 
    1396, 
    1397, 
    1398, 
    1399, 
    1400, 
    1401, 
    1402, 
    1403, 
    1404, 
    1405, 
    1406, 
    1407, 
    1408, 
    1409, 
    1410, 
    1411, 
    1412, 
    1413, 
    1416, 
    1417, 
    1418, 
    1419, 
    1420, 
    1421, 
    1422, 
    1423, 
    1424, 
    1425, 
    1426, 
    1427, 
    1428, 
    1429, 
    1430, 
    1431, 
    1432, 
    1433, 
    1434, 
    1435, 
    1436, 
    1439, 
    1440, 
    1441, 
    1442, 
    1443, 
    1444, 
    1445, 
    1446, 
    1447, 
    1448, 
    1449, 
    1450, 
    1451, 
    1452, 
    1453, 
    1454, 
    1455, 
    1456, 
    1457, 
    1458, 
    1461, 
    1462, 
    1463, 
    1464, 
    1465, 
    1466, 
    1467, 
    1468, 
    1469, 
    1470, 
    1471, 
    1472, 
    1473, 
    1474, 
    1475, 
    1476, 
    1477, 
    1478, 
    1479, 
    1480, 
    1481, 
    1484, 
    1485, 
    1486, 
    1487, 
    1488, 
    1489, 
    1490, 
    1491, 
    1492, 
    1493, 
    1494, 
    1495, 
    1496, 
    1497, 
    1498, 
    1499, 
    1500, 
    1501, 
    1502, 
    1503, 
    1506, 
    1507, 
    1508, 
    1509, 
    1510, 
    1511, 
    1512, 
    1513, 
    1514, 
    1515, 
    1516, 
    1517, 
    1518, 
    1519, 
    1520, 
    1521, 
    1522, 
    1523, 
    1524, 
    1525, 
    1526, 
    1529, 
    1530, 
    1531, 
    1532, 
    1533, 
    1534, 
    1535, 
    1536, 
    1537, 
    1538, 
    1539, 
    1540, 
    1541, 
    1542, 
    1543, 
    1544, 
    1545, 
    1546, 
    1547, 
    1548, 
    1551, 
    1552, 
    1553, 
    1554, 
    1555, 
    1556, 
    1557, 
    1558, 
    1559, 
    1560, 
    1561, 
    1562, 
    1563, 
    1564, 
    1565, 
    1566, 
    1567, 
    1568, 
    1569, 
    1570, 
    1571, 
    1574, 
    1575, 
    1576, 
    1577, 
    1578, 
    1579, 
    1580, 
    1581, 
    1582, 
    1583, 
    1584, 
    1585, 
    1586, 
    1587, 
    1588, 
    1589, 
    1590, 
    1591, 
    1592, 
    1593, 
    1596, 
    1597, 
    1598, 
    1599, 
    1600, 
    1601, 
    1602, 
    1603, 
    1604, 
    1605, 
    1606, 
    1607, 
    1608, 
    1609, 
    1610, 
    1611, 
    1612, 
    1613, 
    1614, 
    1615, 
    1616, 
    1619, 
    1620, 
    1621, 
    1622, 
    1623, 
    1624, 
    1625, 
    1626, 
    1627, 
    1628, 
    1629, 
    1630, 
    1631, 
    1632, 
    1633, 
    1634, 
    1635, 
    1636, 
    1637, 
    1638, 
    1641, 
    1642, 
    1643, 
    1644, 
    1645, 
    1646, 
    1647, 
    1648, 
    1649, 
    1650, 
    1651, 
    1652, 
    1653, 
    1654, 
    1655, 
    1656, 
    1657, 
    1658, 
    1659, 
    1660, 
    1661, 
    1664, 
    1665, 
    1666, 
    1667, 
    1668, 
    1669, 
    1670, 
    1671, 
    1672, 
    1673, 
    1674, 
    1675, 
    1676, 
    1677, 
    1678, 
    1679, 
    1680, 
    1681, 
    1682, 
    1683, 
    1686, 
    1687, 
    1688, 
    1689, 
    1690, 
    1691, 
    1692, 
    1693, 
    1694, 
    1695, 
    1696, 
    1697, 
    1698, 
    1699, 
    1700, 
    1701, 
    1702, 
    1703, 
    1704, 
    1705, 
    1706, 
    1707, 
    1708, 
    1709, 
    1710, 
    1711, 
    1712, 
    1713, 
    1714, 
    1715, 
    1716, 
    1717, 
    1718, 
    1719, 
    1720, 
    1721, 
    1722, 
    1723, 
    1724, 
    1725, 
    1726, 
    1727, 
    1728, 
    1729, 
    1730, 
    1731, 
    1732, 
    1733, 
    1734, 
    1735, 
    1736, 
    1737, 
    1738, 
    1739, 
    1740, 
    1741, 
    1742, 
    1743, 
    1744, 
    1745, 
    1746, 
    1747, 
    1748, 
    1749, 
    1750, 
    1751, 
    1752, 
    1753, 
    1754, 
    1755, 
    1756, 
    1757, 
    1758, 
    1759, 
    1760, 
    1761, 
    1762, 
    1763, 
    1764, 
    1765, 
    1766, 
    1767, 
    1768, 
    1769, 
    1770, 
    1771, 
    1772, 
    1773, 
    1774, 
    1775, 
    1776, 
    1777, 
    1780, 
    1781, 
    1782, 
    1783, 
    1784, 
    1785, 
    1786, 
    1787, 
    1788, 
    1789, 
    1790, 
    1791, 
    1792, 
    1793, 
    1794, 
    1795, 
    1796, 
    1797, 
    1798, 
    1799, 
    1800, 
    1801, 
    1802, 
    1803, 
    1804, 
    1805, 
    1806, 
    1807, 
    1808, 
    1809, 
    1810, 
    1811, 
    1812, 
    1813, 
    1814, 
    1815, 
    1816, 
    1817, 
    1818, 
    1819
  ], 
  "heads": [[1626, 0, 0], [1661, 0, 0], [1662, 0, 0], [1664, 0, 0]], 
  "attrs": {"mxnet_version": ["int", 10300]}
}